ex8/cartpole_v1.pt (torch, 138487 bytes, 8 tensors)

dqn.0.weight f4 [128, 4]
000000 bd 64 3b bc f1 da 2b be 27 1c 02 3f 5a 28 80 3e
       -0.011437592 -0.16782738 0.5082421 0.25030786
000010 80 2e 24 be 9c 5f 19 3e 35 22 ba 3e 5b 32 b1 bc
       -0.16033363 0.14977878 0.36354223 -0.021630457
000020 10 a8 a9 3d 56 dd 68 3e 86 2a aa 3e ea 98 2c 3e
       0.082840085 0.22740683 0.33235568 0.16855207
000030 e5 08 7e bd fb ce b5 bd f0 02 a0 3c fc e6 f6 bc
       -0.0620202 -0.08877369 0.01953265 -0.030139439
000040 32 77 9a 3e 22 e4 a8 be 74 18 ad be 40 02 21 bd
       0.30169064 -0.32986552 -0.3380772 -0.039308786
000050 98 8f c7 3d b1 69 18 3e e0 8f 1c 3e 0d d7 94 3d
       0.09744185 0.14884068 0.15289259 0.0726758
000060 53 4f 61 3e 48 0a d2 3d 60 55 f2 3e a1 61 3a 3e
       0.22002916 0.10255867 0.4733076 0.18201305
000070 50 13 63 3d e8 7c 5b be 4f fd 00 bc 72 bd 11 be
       0.05543834 -0.21434367 -0.0078728935 -0.14232424
000080 59 d1 f0 3e 2a b1 73 3e a4 1e c6 be 0b bc 2e be
       0.4703472 0.23798051 -0.38695252 -0.1706392
000090 f6 c0 12 3e 50 02 9e 3e b7 3b 1f 3c 1f 57 0b be
       0.14331421 0.3086114 0.009718827 -0.13607453
0000a0 5c c7 3b bc 03 5e 90 3d 56 31 80 3e eb 40 4b 3c
       -0.011461105 0.07049181 0.2503764 0.012405614
0000b0 6f 9a 20 be 7a 53 58 3e 92 ae 96 3e 0b b9 c2 bd
       -0.15683912 0.21125594 0.29430062 -0.095079504
0000c0 3d 2a 92 3d 67 88 0c 3e 95 80 09 3f cc d8 9f 3e
       0.071369626 0.13723908 0.53711826 0.3122009
0000d0 11 af 83 be 00 56 08 3e 74 a9 c7 3e 95 cc 90 bd
       -0.25719503 0.13314056 0.3899647 -0.07070271
0000e0 03 b6 ce bd 9d 70 73 bd a5 1c 66 3d 6d 5c 88 bd
       -0.1009331 -0.05943357 0.05617966 -0.06658254
0000f0 9d 54 bf 3e 16 72 9d 3e 78 cb 7b be 4b 43 3c be
       0.37369242 0.30751103 -0.24589336 -0.18385045
000100 ae 6a 99 3e 6c 37 e8 bd 95 10 c3 be b5 b5 0f 3e
       0.29964203 -0.11338696 -0.3809859 0.1403416
000110 6a f8 45 3e 6c bc 9c be 8c 80 14 3e ef 1c c2 bc
       0.19333044 -0.30612504 0.14502162 -0.023695437
000120 b1 96 11 be a9 50 89 3c cc 05 91 bd e2 d4 92 bc
       -0.1421764 0.016762095 -0.07081184 -0.017923776
000130 17 d2 88 3e 27 7c 3d 3e d5 08 ea 3e d8 81 49 3e
       0.26722786 0.18504392 0.45709863 0.19678438
000140 6a 74 c7 be ee 04 72 be 95 42 e9 be 74 f1 73 be
       -0.38956004 -0.23634693 -0.4555861 -0.23822576
000150 b0 fb a5 3e d4 7e b7 be 0b f9 82 be f7 8d fc bd
       0.32418585 -0.3583895 -0.2558063 -0.12331765
000160 6a 50 43 be 78 aa 3d 3e b0 f9 97 3e 1c d5 98 3e
       -0.19073644 0.1852206 0.29682684 0.2985009
000170 56 c6 c7 bd bc ba 88 be 4f b4 c7 3e 11 e0 b0 3e
       -0.097546265 -0.26704967 0.39004752 0.3454595
000180 01 5b 38 3e 8d 94 48 be 01 24 f6 be d1 d0 f0 3d
       0.18003465 -0.19587918 -0.48074344 0.117585786
000190 dc 88 92 3d 3b 0c 3c be 6c 03 95 be fc 23 c0 bd
       0.0715501 -0.1836404 -0.29104173 -0.093818635
0001a0 0a 1b a2 3d 52 1c e2 bd 08 89 da be 9a eb b6 be
       0.079153135 -0.11040558 -0.42682672 -0.35726625
0001b0 16 cd 41 be dd 88 4d 3e fd 12 8c 3e 60 09 15 3d
       -0.1892589 0.2007174 0.27358237 0.036385894
0001c0 d1 df de bd c9 8c 9d bd 83 90 a5 3d 26 76 bc bd
       -0.10882533 -0.07692868 0.08084204 -0.092022225
0001d0 29 00 ba bd 3c 90 c8 3e 0a 55 9b 3e 9b ad 8e 3e
       -0.09082062 0.39172542 0.30338317 0.27866825
0001e0 c2 76 a6 3e f7 cf a2 be 67 5f 71 be b7 c4 0b be
       0.3251248 -0.3179929 -0.2357155 -0.1364926
0001f0 06 17 cc be ce 88 ab be a2 19 87 3e 63 31 c5 3b
       -0.39861315 -0.3350281 0.26386744 0.0060178502
000200 50 d0 56 3e a3 6c 32 be ec ed f8 3d 52 f9 42 be
       0.20977902 -0.17424254 0.12154755 -0.1904042
000210 72 11 c8 bd fb f1 f0 bd 47 8c 5b 3e be 51 0e be
       -0.097689524 -0.11764904 0.2144023 -0.1389837
000220 4d cc 0c 3d 26 4b 96 3e 10 7b 15 be a7 07 b7 bd
       0.034374524 0.2935421 -0.14597726 -0.089370064
000230 d7 c6 b3 bd f3 f4 b8 bd b9 fe 11 3e 03 21 67 be
       -0.0877816 -0.09031095 0.14257325 -0.22571187
000240 10 76 26 3e 21 55 98 be ed d5 61 bd c2 2d 59 be
       0.16255975 -0.29752448 -0.055135656 -0.21208861
000250 eb 50 80 3c f3 d1 59 3e 75 28 e6 3d dc 14 8e 3d
       0.015663585 0.21271496 0.11238185 0.06937572
000260 b5 d1 26 3b ea 0e ba 3c b4 db 3b be 66 63 a7 3d
       0.0025454585 0.02271219 -0.18345529 0.081732556
000270 cb 7e 20 3e a4 2a 5d be 24 ec 38 3c df aa 69 bd
       0.15673368 -0.21598297 0.011286769 -0.05704772
000280 67 45 c3 3d fb 08 86 be 78 b1 d7 be 00 e6 7b be
       0.09534722 -0.26178727 -0.42127585 -0.24599457
000290 e3 8c ce 3d d1 8c 00 be 8a d5 df bd 6e b8 6b be
       0.10085466 -0.12553717 -0.10929401 -0.23019573
0002a0 7d 21 9f bd f1 3f 4b 3c 6e 20 f8 3e 20 01 4b be
       -0.07770059 0.012405382 0.48462242 -0.19824648
0002b0 d9 36 97 3e 1a fa ad be f7 6a 4e 3d 18 96 81 be
       0.29534033 -0.33979875 0.05039498 -0.25309825
0002c0 0a 4e cb 3b 0c 88 5c be 86 73 0f 3f f2 ae 95 3e
       0.0062043713 -0.21536273 0.5603565 0.29235035
0002d0 c0 9e 39 bd 1c 80 7c bd 5e 1f 5a 3e 0d f9 df bc
       -0.04531741 -0.061645612 0.21301028 -0.027340436
0002e0 84 9e 26 3e 11 7f 53 be 4e 7d b6 bd 6f 24 11 be
       0.16271406 -0.2065394 -0.08910619 -0.14174055
0002f0 c9 55 21 3e 08 78 64 3e 1c e4 8a 3e b3 cd 94 3e
       0.1575538 0.22311413 0.2712716 0.29063186
000300 d7 ff 5c be 76 09 1f be 3c 38 be bd 73 f6 8a 3e
       -0.2158197 -0.15530953 -0.092880696 0.2714115
000310 0f 41 a9 3e 99 0d af be 3b 0c 02 bf d4 03 4e 3e
       0.33057448 -0.34190062 -0.5079991 0.20118648
000320 38 3d 38 3e 29 15 0b 3e 6d 42 cf be 37 55 82 be
       0.17992103 0.1358229 -0.40480366 -0.2545564
000330 c4 d7 00 3f ce 47 6b 3d 12 8b d6 bd cb 29 90 bd
       0.5032923 0.057441525 -0.10475744 -0.070392214
000340 c5 2e 9d be f4 f4 18 3e 73 6c b5 3e 6f 49 2b bd
       -0.30699745 0.14937192 0.35434303 -0.04181808
000350 d8 5d 69 3e ad dc 1c bc ed ea 6c bd c2 1d dc 39
       0.22789705 -0.009574098 -0.05784123 0.0004198384
000360 d2 60 87 bd 90 2c 82 3e e7 6c ce 3e 41 28 66 be
       -0.06610264 0.25424623 0.4031746 -0.22476293
000370 67 e6 21 3e a4 1e 41 be 69 f9 f1 3d e2 f8 0d be
       0.15810548 -0.18859345 0.11815149 -0.13864473
000380 53 44 a8 3e 8b d9 ed 3c 01 da 12 3f 7e 46 d4 3d
       0.32864627 0.029034397 0.573639 0.10365008
000390 d1 84 3c 3e 8c 2d 15 be d6 83 6e be fa ce ae bd
       0.1841004 -0.14568156 -0.23292479 -0.085355714
0003a0 64 9f 65 3c 28 eb 85 3e e5 de 11 bf e7 ae 89 bd
       0.0140150525 0.26155972 -0.56980735 -0.06722813
0003b0 fb 6a 7e be e2 e3 64 3d 34 b5 99 3c ff a4 24 bd
       -0.24845497 0.05588139 0.018763162 -0.040196415
0003c0 4a 38 1e be 70 f5 68 3e 7b 12 3e bd 76 07 f2 bd
       -0.1545116 0.22749877 -0.046404343 -0.11817829
0003d0 02 0e ba 3e 69 e0 8d be b0 3f 86 3d 89 29 e3 bd
       0.36338812 -0.27710274 0.06555116 -0.110919066
0003e0 2c 12 04 be 1e d7 0c be c2 28 38 3b 53 d5 86 bd
       -0.12897557 -0.13753936 0.0028100465 -0.06583657
0003f0 93 63 89 3e 8b 6d 1f be 03 0f 46 be cf 75 49 bd
       0.26833782 -0.15569131 -0.19341664 -0.049184617

dqn.0.bias f4 [128]
000000 b9 84 9a bd f5 52 1a 3e 46 1f 8e bc e2 79 30 3e
       -0.07544846 0.15070708 -0.017348897 0.17233995
000010 22 c1 05 3e 79 6a 1f 3e f0 72 ea 3b e1 c6 2d 3e
       0.13061956 0.1556796 0.007154815 0.16970398
000020 55 f6 4f bd 9b a5 13 3e 1f f5 28 3e 7d 02 07 3d
       -0.05077203 0.14418642 0.16499756 0.032961357
000030 cf a3 cd 3d bb ac e7 3d 22 c7 2d 3e 89 71 8a bd
       0.1004101 0.113122426 0.16970494 -0.06759936
000040 be f7 fd 3d 08 78 fc 3d 65 fc d0 3d 48 7a 49 bd
       0.12400769 0.12327582 0.102043904 -0.049188882
000050 f5 eb 0f bb 02 c3 0b 3e ce f7 20 be 13 2c d9 bd
       -0.002196071 0.13648608 -0.1571953 -0.106041096
000060 b7 23 04 3e 12 f0 1f 3e ed e8 18 be 2f 87 04 3e
       0.12904249 0.15618923 -0.14932604 0.12942193
000070 63 30 27 3e af 53 3a bd 9f c1 09 3e 37 dc e3 bd
       0.16327052 -0.045489963 0.13452767 -0.11125987
000080 7f 01 28 3e 4f af 12 3e 96 1f 11 3e 03 12 eb 3d
       0.1640682 0.14324687 0.14172205 0.11478045
000090 d4 39 31 3e fd a4 23 3e e2 33 29 3e 5b 7e 19 3e
       0.17307216 0.15980907 0.16523698 0.14989607
0000a0 ec b5 9b bd ea f5 e7 bd 75 59 03 3e 95 60 2a 3e
       -0.07603058 -0.11326201 0.12827094 0.16638406
0000b0 76 cf 0e 3d 14 b9 2b 3e 3e 63 2a 3e 6a 02 94 bd
       0.03486582 0.1676982 0.1663942 -0.07227023
0000c0 f9 fc b9 3d de 7e be 3d 36 18 86 3d 33 6b 48 bd
       0.09081454 0.09301542 0.065475866 -0.04893036
0000d0 94 a8 12 3e b2 0f 22 3e 31 81 aa 3d c9 b0 05 3e
       0.1432212 0.158263 0.083254226 0.1305572
0000e0 3e 12 6c bc 72 74 16 3e 90 be ef bd 68 9f 26 3e
       -0.014408646 0.14692858 -0.11706269 0.16271746
0000f0 49 1a af 3d dc 8b 59 3a 48 4a 37 3e 97 32 1c 3e
       0.08549935 0.0008298734 0.1789943 0.15253673
000100 75 1f f5 bd b2 97 09 3e 07 5b 80 39 ed 8c 2f 3e
       -0.119688906 0.13436773 0.00024481883 0.17143603
000110 51 c5 1f 3e 29 6c f4 3d 76 0b 76 3d 1e 1b 30 3e
       0.15602614 0.119346924 0.060069524 0.17197844
000120 21 c2 03 3e d4 13 72 3d 42 ff 94 bc fd f7 2d 3e
       0.12867023 0.05910094 -0.018188123 0.16989131
000130 2c e5 ed 3d 76 da 0d 3e 07 62 0f 3e 69 1d e1 3d
       0.11615977 0.13852867 0.14002238 0.10991938
000140 bf df ab 3c 1f 1a 1e be 3c ad c6 bd 11 15 89 3d
       0.020980714 -0.15439652 -0.097010106 0.06693471
000150 14 f6 da bd de c6 37 3e 7a 4a a9 bc 42 b8 22 3e
       -0.10691467 0.17946956 -0.020665396 0.15890601
000160 08 a8 2f 3e d2 8a 32 3e d0 8f 5b bd 01 81 2b bb
       0.17153943 0.17435768 -0.053603947 -0.0026169422
000170 84 c7 21 3e de dc f9 3d 3a a6 d3 3d 30 fe ed 3d
       0.15798765 0.1220033 0.103344396 0.11620748
000180 5d a2 bf bc 9f 40 f8 bd 3b a6 17 3e d1 84 d0 bd
       -0.02339285 -0.121217005 0.14809506 -0.10181583
000190 85 21 4a 3e d9 cf b0 3d 06 a9 f1 3d 46 50 ae bd
       0.19739349 0.08633394 0.11799817 -0.08511405
0001a0 64 3b 1f 3e 25 79 01 3e c3 43 eb 3d c5 bb 11 3e
       0.1555 0.12643869 0.11487534 0.14231785
0001b0 4d 6f a8 3d 76 5d 3c 3e fb 1e 1b 3e 1b d5 04 be
       0.08224354 0.18395028 0.15148537 -0.12971918
0001c0 a4 d0 ba bd a4 38 d7 bb 71 46 23 3e cc 67 13 3e
       -0.09121826 -0.0065680314 0.1594484 0.14395064
0001d0 71 f5 9a bc 8a 88 20 be cc 3c 48 3e 8c e8 a8 bd
       -0.018915864 -0.15677086 0.19554442 -0.0824748
0001e0 10 30 15 3e 02 ac c7 3d 1d 82 c1 3d 25 be fa bd
       0.14569116 0.09749605 0.09448645 -0.122432984
0001f0 b3 ff 9d 3c e7 2b d5 3c 56 bc 05 3e 0e f5 22 3e
       0.019286966 0.02602191 0.13060126 0.15913793

dqn.2.weight f4 [128, 128]
000000 56 4e be 3d 1d 27 5d 3d ba 0d 1c be da a1 0a 3e
       0.09292285 0.05399238 -0.15239611 0.13538304
000010 3f 3b 67 3d 57 8c 31 be dc ea f1 bd a7 5f 39 be
       0.056452986 -0.17338692 -0.11812374 -0.18102895
000020 1f 1c 02 3e 8d 0b 81 3b f0 0f 68 be 4d 58 4e be
       0.1270604 0.0039381445 -0.2266233 -0.20150872
000030 a8 d4 95 bc ff a1 56 be 75 81 80 38 90 24 df bd
       -0.018289879 -0.20960234 6.127629e-05 -0.108956456
000040 7c 09 05 3e 8b e8 4e be cb ee de bb 57 aa d6 bd
       0.12991899 -0.20205896 -0.0068033687 -0.104817085
000050 38 9c ab bd 89 5a ce 3d ca 25 04 be 88 ea 24 3e
       -0.08379406 0.10075862 -0.1290504 0.16105092
000060 63 4b af 3d 87 e4 c4 bc d3 51 3c be 41 c5 0f 3e
       0.08559301 -0.024034752 -0.18390588 0.1404009
000070 88 67 37 be 26 98 35 be d2 9a 80 3c 63 a2 4a be
       -0.17910588 -0.17733821 0.015698824 -0.19788508
000080 93 1a af bd 9f aa 47 3d 97 41 c2 bd a1 44 d3 3d
       -0.085499905 0.0487467 -0.094851665 0.10315824
000090 2b da 0d be af 5d 5b be f2 02 3b be b1 e7 da bd
       -0.13852756 -0.21422456 -0.18262842 -0.10688723
0000a0 0a c4 57 be d8 4e c7 bc 6c 37 61 3d 90 67 04 3e
       -0.21070877 -0.024329588 0.054984495 0.12930131
0000b0 e9 f7 30 be 20 bd 05 3e 7f ce 17 3d 87 dd c6 bd
       -0.1728207 0.13060427 0.037062164 -0.09710222
0000c0 23 c1 f2 bc 03 85 9f 3d e0 2e 50 3e 78 58 a1 3d
       -0.02963311 0.07789042 0.20330381 0.07878202
0000d0 64 52 28 3d 7f a9 8e bc d0 14 bd bb 08 22 e3 3b
       0.0410942 -0.017414806 -0.0057703033 0.006931547
0000e0 38 41 90 3c f5 36 17 3d 09 f5 47 3e f6 54 38 3e
       0.017609224 0.036917645 0.19527067 0.1800116
0000f0 ee 32 34 be 06 6d 12 bd 31 d1 11 be 8f a6 5e bd
       -0.17597553 -0.035748504 -0.14239956 -0.05435806
000100 e4 aa 7d bd b9 e3 90 bd ae ef 87 3d dd c4 0b be
       -0.061930552 -0.07074685 0.06637512 -0.13649316
000110 30 67 fc 3d d9 39 ab bd 86 da 66 3d f4 53 46 bd
       0.12324369 -0.08360643 0.056360744 -0.048419908
000120 50 6c 97 bd 70 1d 19 3d 86 eb 7f bd 94 4b 3e 3d
       -0.07393706 0.03738159 -0.062480472 0.046458796
000130 84 c8 24 3e 51 b9 27 3e a8 58 dd bd d1 61 43 3e
       0.16092116 0.16379286 -0.108079255 0.19080283
000140 54 c6 5f bc fc 0f 4c be 56 bc 9f 3d da 7a 22 3e
       -0.013658125 -0.19927973 0.07799594 0.15867177
000150 c6 72 29 bd 8e d4 1d bc 20 33 23 3d 74 db 80 bd
       -0.041369222 -0.0096331965 0.03984368 -0.06291857
000160 39 24 c8 bd 6e 9a b8 3c f8 95 80 bd f6 c1 26 bd
       -0.09772534 0.022534575 -0.06278604 -0.04071232
000170 32 c8 c0 bd be fd 38 be 1b be 21 3e 0b 4d 0b bd
       -0.09413184 -0.18065545 0.15795176 -0.03400902
000180 be c3 73 3c 4a 9d 55 3e 1a a7 1b 3e db 9f 4c bd
       0.014878212 0.20860782 0.15200463 -0.049957138
000190 97 86 5d be 41 70 34 bd 16 78 78 ba fd f0 57 bd
       -0.21633373 -0.044052366 -0.00094783434 -0.05272006
0001a0 72 a9 55 be 5e 50 b6 3d 67 1f 2e be b5 a6 1d be
       -0.2086542 0.089020476 -0.17004167 -0.15395625
0001b0 e3 76 0d be b8 e0 99 bd 0e 3b 06 3e 2b 38 e4 bd
       -0.13814883 -0.07513565 0.13108465 -0.11143526
0001c0 76 39 d8 bd 1a 89 8a bd 0d 74 30 3e cd b8 af bd
       -0.10557835 -0.06764431 0.1723177 -0.0858017
0001d0 0a 72 4e 3e 0f 83 37 3e 40 a0 07 3e d6 ea 1f 3d
       0.2016069 0.17921089 0.13244724 0.039042316
0001e0 dc 95 57 be 3d c1 03 bd 5a 89 4f be 19 2e ce bd
       -0.2105326 -0.03216671 -0.20267239 -0.10067386
0001f0 4e ef 07 bd 92 d7 15 3e 2e ae e3 bd d9 55 17 be
       -0.033187203 0.14633015 -0.111172065 -0.14778842
000200 3e 35 00 be 3f 11 f3 3d 0e ee 58 3a 06 8c 4e 3d
       -0.1252031 0.11868524 0.0008275219 0.050426506
000210 e0 3a b1 3c 78 54 4b 3e 0b 61 a7 be 99 52 89 bd
       0.02163452 0.19856441 -0.32691225 -0.067052074
000220 4e b0 f5 bd e0 10 22 bd cb 96 f3 3c 1d 9a 8e bd
       -0.11996518 -0.039566875 0.02973499 -0.069629885
000230 3b f7 b1 3c 42 39 70 bd 83 7d 6a bd 9f 89 91 3d
       0.021724334 -0.058648355 -0.057248604 0.07106327
000240 08 3e 33 3e 73 11 84 3c 66 b0 21 3e 3a 02 36 bd
       0.17504132 0.016121602 0.15789947 -0.044435717
000250 ba c8 51 be ea 89 19 bd 52 a7 64 bc 4a 0c 4e 3d
       -0.20486727 -0.03748504 -0.013955908 0.05030469
000260 6d f1 c7 bd 62 90 31 3d 4f 78 74 be 2f 7e 9f bd
       -0.09762845 0.043350585 -0.23874019 -0.077877395
000270 89 82 87 3e d6 eb 79 be bc 8e 09 3e 22 1a bc be
       0.26466778 -0.2440637 0.13433355 -0.36738688
000280 55 7b 39 bd 18 55 0c be 7f 15 32 be 39 7d 41 3e
       -0.045283634 -0.13704336 -0.17391013 0.18895425
000290 94 5b a7 3d 0c cc 07 be df 39 01 bd a1 68 83 bc
       0.08171764 -0.13261431 -0.03154933 -0.016041102
0002a0 f2 6b 23 be a1 22 b5 3b 65 d4 ce 3d 8f d9 5a 3e
       -0.15959147 0.0055278097 0.10099105 0.21372055
0002b0 a0 d2 15 3e ee 3e 02 be 40 59 48 3d 94 f9 b1 bd
       0.14631128 -0.12719318 0.04891324 -0.086901814
0002c0 ab 58 5d be 4f 66 1b 3e a4 e2 00 bd f2 2f 66 be
       -0.21615855 0.15175746 -0.03146614 -0.22479227
0002d0 49 df 97 3e 55 a7 d7 3d 4c 83 10 3d 09 47 79 3d
       0.2966254 0.10529963 0.035281464 0.06085876
0002e0 49 09 62 3d 2d 0d 9a 3e 1c ec ec 3d 3f d8 e6 bd
       0.055184636 0.30088177 0.11568472 -0.112717144
0002f0 c1 0a 27 3e d4 2a a7 3d ef 7b 20 3e 10 2c c3 bc
       0.16312696 0.08162466 0.15672277 -0.023824722
000300 b7 75 c1 be a2 9e 58 3d 30 52 c4 3a f0 3d 76 3e
       -0.37785122 0.05288566 0.0014978107 0.24047065
000310 69 92 38 3e 5a 45 70 3e b2 98 5c be db ba a7 bd
       0.18024601 0.23463956 -0.21542624 -0.08189937
000320 35 c3 85 bd 16 07 84 bc c6 fd b3 3c 4c 81 5a 3e
       -0.065313734 -0.01611666 0.021971595 0.21338385
000330 45 e8 0b be c0 88 12 3e 7c a4 55 bd 67 f6 5b 3e
       -0.13662823 0.14309978 -0.052158818 0.21480714
000340 e4 8a 64 3e 6d 2f 7b be 9e 43 e5 be 92 c2 d6 3d
       0.22318608 -0.2452981 -0.4477815 0.1048633
000350 f9 d9 b8 be 10 bb 1a 3d 2f 21 91 bc f2 c0 f3 3d
       -0.361038 0.037776053 -0.017716018 0.11902036
000360 f3 a0 1b 3e a9 57 16 3e 9a 21 8a bc d4 2b f1 3c
       0.15198116 0.14681877 -0.016861726 0.029439844
000370 eb 42 85 3e 80 78 1d bb 1b 4f 48 3e 48 28 38 be
       0.26027617 -0.0024028122 0.19561426 -0.17984116
000380 c4 d4 7b be a8 16 68 3c ad 28 de 3d a9 9b 86 3d
       -0.24592882 0.014165558 0.10847602 0.065726586
000390 70 97 b0 bc fb e2 23 3e 66 bc a2 3d d9 2d 77 be
       -0.021556586 0.16004555 0.079460904 -0.24138583
0003a0 c9 c6 7c bd aa 01 4f 3e c2 63 58 3e fd f3 87 3e
       -0.061713014 0.20215479 0.21131805 0.26553336
0003b0 9e 8a ed 3d 4e 39 6c 3e 4d ea c2 3d b1 91 e3 be
       0.11598705 0.23068735 0.095173456 -0.4444709
0003c0 5a 4a 4b 3d 1b 7d aa bd 28 f8 11 be 50 f7 2f be
       0.049631454 -0.08324643 -0.1425482 -0.17184186
0003d0 6b 4f f1 bd 3f e4 4b be da f2 61 3e d1 e9 27 be
       -0.11782726 -0.19911288 0.22065297 -0.16397788
0003e0 db d4 03 3c 35 96 14 be 2b c5 4c bd dd 83 80 3d
       0.008046354 -0.14510424 -0.04999272 0.06275151
0003f0 6c 7e 4d 3b 48 dd 68 be f8 7f 46 bd 31 b3 60 bd
       0.003135587 -0.22740662 -0.048461884 -0.05485839

dqn.2.bias f4 [128]
000000 6f b9 8d bc d2 37 ac 3d 3b cc 19 bd be 97 05 3e
       -0.017300336 0.084090844 -0.037548285 0.13046166
000010 56 b2 88 bc 0e 63 aa 3c c9 1b 0d 3e f8 1d 02 3e
       -0.0166866 0.020799186 0.1378013 0.12706745
000020 93 6a 14 3e 22 d4 01 3e 68 81 04 3e 77 44 22 3e
       0.1449378 0.12678578 0.1293999 0.1584643
000030 23 b2 20 3e d1 9c e9 bc 86 35 09 3e fb aa d1 bb
       0.15692954 -0.028517159 0.13399324 -0.0063985563
000040 ee fc 23 bd 4d 4d cc bc 21 e3 b9 3c 10 e8 85 3c
       -0.040036134 -0.024939204 0.022691311 0.016346008
000050 08 82 02 3e 5b 2c 0d 3e b1 cf fb 3d 56 dc aa bc
       0.12744915 0.13786452 0.12295473 -0.020857017
000060 c3 22 55 bd 1f 19 8e bc ed a4 fd 3d cc da 4d bc
       -0.052035104 -0.017345963 0.12384973 -0.012564372
000070 df 7b 0b 3e 0a 1f 0b 3e f8 83 de 3d 7c 81 57 3d
       0.13621472 0.13586059 0.10865015 0.05261372
000080 ff 62 02 3e 89 d0 12 3e 69 0b 0d 3e 22 0a bb bc
       0.12733077 0.14337362 0.13773884 -0.02283198
000090 5a 2e 1d bc 24 0c 10 3e 4f f9 f2 3d 36 bb ea 3d
       -0.009593571 0.14067131 0.11863958 0.11461489
0000a0 00 00 00 00 bb 01 65 bc 92 1c dc bb ac 55 fb 3d
       0.0 -0.013977463 -0.006717273 0.122722
0000b0 4a c7 16 3e 50 94 a2 bc 38 75 f5 3d 35 05 ca 3d
       0.1472446 -0.019846112 0.11985248 0.098642744
0000c0 02 9c 10 3e e7 ba 0f 3e bd 1e 03 3e bb 2c aa ba
       0.14122012 0.14036141 0.12804694 -0.0012983301
0000d0 96 85 00 3e 27 34 c9 3d 8a f1 0a 3e f0 87 c7 3d
       0.12550959 0.098244004 0.13568702 0.09742725
0000e0 a1 9c 04 3e e2 e3 9b bc 9b e1 8e bc 92 47 09 3e
       0.12950374 -0.019029561 -0.017441561 0.13406208
0000f0 7f 2e 05 3e 74 dc 01 3e a7 e7 11 bd 38 3a fb 3d
       0.13006018 0.12681752 -0.03562131 0.12266964
000100 d9 de 0c 3e bb 92 04 bc 0e 6b b0 3d 6f 08 0f 3e
       0.13756885 -0.008091624 0.08614169 0.13968061
000110 64 01 09 3e f4 4b 08 3e 76 ef 1b 3e 17 35 eb 3d
       0.13379437 0.13310224 0.15228066 0.114847355
000120 3c e0 09 3e 3c 49 14 3e 5c c3 09 3e d7 be 59 bc
       0.13464445 0.14481062 0.1345343 -0.013290129
000130 9c f3 04 3e 6d 48 88 3d b5 bd 0b 3e 36 6e 14 3e
       0.12983555 0.06654439 0.13646586 0.14495167
000140 f0 bd c0 bc 38 b5 08 3e 81 b2 fd 3d 0f 7a 01 3e
       -0.02352807 0.1335038 0.123875625 0.12644218
000150 cf d2 f4 3d fd 44 05 3e 25 22 e2 3d a7 b3 0b 3e
       0.11954271 0.13014598 0.11041669 0.1364275
000160 a6 c3 79 3d 89 87 ca bc 7d 0f 0b 3e 94 e3 00 3e
       0.0609776 -0.024722831 0.13580127 0.12586814
000170 1c 7a 85 bc 16 1d 08 3e 0f b4 11 3e c8 ee 02 3e
       -0.016293578 0.13292345 0.14228843 0.127864
000180 0b 3e 14 3e a0 c0 0e 3e c3 09 1f 3d b8 08 01 3e
       0.14476793 0.13940668 0.03882767 0.12600982
000190 06 b9 22 3d 61 2e 0a 3e b4 a3 fd 3d ec c8 a4 bc
       0.039727233 0.13494255 0.123847395 -0.020115338
0001a0 34 7f 0a 3e 25 b6 14 3e f9 64 3b 3d f2 51 cd bb
       0.13525087 0.14522608 0.045750592 -0.006265872
0001b0 2d 41 0c 3e 24 4d 1e 3e c7 b1 0b 3e a7 9d 9d bd
       0.13696738 0.15459114 0.13642035 -0.076960854
0001c0 85 03 15 3e e3 f9 fd 3d 7f 2d 13 3e 1c 85 5e bd
       0.14552124 0.12401178 0.14372824 -0.05432616
0001d0 11 48 43 3c 2e 42 08 3e b5 ae f6 3d d8 38 03 3d
       0.011919037 0.13306496 0.120450415 0.032036632
0001e0 f0 e9 0e 3e 26 ec 18 3e 02 df f8 3d af 12 0f 3e
       0.13956428 0.14933833 0.1215191 0.13971971
0001f0 87 a9 05 3e 7e 37 0d 3e 8a 79 7d bc c7 65 e7 3d
       0.13052951 0.137907 -0.015470872 0.11298709

dqn.4.weight f4 [128, 128]
000000 41 27 5e 3d fe 6d ab 3d b1 3f 24 be 39 a4 b7 3e
       0.054236654 0.08370589 -0.16039921 0.3586748
000010 41 e9 95 3d ae 34 7b be 1e a6 66 3e e3 ae 3b 3e
       0.0731988 -0.24531814 0.22524306 0.18328433
000020 6c e0 a1 3e 9c a0 26 3e de 8f 90 3e e6 3e 05 3e
       0.31616533 0.16272205 0.28234762 0.13012275
000030 23 7c c3 bc 06 ad 87 be 77 bf b3 3e 90 e3 cf bd
       -0.023862904 -0.26499194 0.35107014 -0.10150826
000040 08 67 f9 3b 14 7a 15 3e 2d c0 9c bd 87 ce 6c be
       0.0076111592 0.1459735 -0.07653842 -0.23125659
000050 e6 65 b7 3e 84 f1 7d 3e 60 f4 6b 3e 20 be 75 be
       0.3581993 0.24799162 0.2304244 -0.23998308
000060 8b 65 36 3d f1 6b e2 3d fe 66 7c 3e 6f 05 09 3e
       0.044530433 0.110557444 0.24648663 0.13380979
000070 63 24 21 3d f6 b8 1c 3e e8 fa e7 3d 67 1e 30 bd
       0.03934134 0.15304932 0.113271534 -0.042997744
000080 e6 01 d6 bd 50 be 9d 3e de b3 3b 3e 67 28 0a be
       -0.10449581 0.3080926 0.18330333 -0.13491975
000090 bd e2 a7 3d c9 e1 ae 3e 11 5a ac 3e 0f 83 41 3e
       0.08197544 0.34156635 0.33662465 0.18897651
0000a0 d8 aa 1e be 6f 46 29 be 8e bd 86 bd 26 0e 39 3e
       -0.15494859 -0.16530775 -0.065791234 0.18071803
0000b0 e3 6e d3 bd a4 fa cb bd 62 22 e0 bd b2 12 a0 bd
       -0.10323884 -0.09959915 -0.10944058 -0.07816066
0000c0 0e c6 1c 3d 8a 61 13 3e 78 f9 0b bc ce a1 e6 bd
       0.038274817 0.14392677 -0.008543365 -0.112613305
0000d0 85 e8 7e 3d f9 a5 97 3e 17 1d 7d 3e 88 01 d7 3e
       0.062233467 0.29618815 0.24718128 0.41993356
0000e0 17 4c ab 3e fe d1 e6 bb de 26 4e be 88 58 02 3e
       0.3345649 -0.007044076 -0.20132014 0.12729084
0000f0 8e 23 2b 3d 87 96 af bd 2e 02 73 3d bc 14 25 3e
       0.041781954 -0.08573633 0.05932825 0.16121191
000100 bd 1b 5d 3e 38 58 bf bd 13 8b b5 bd 6a bd a0 3e
       0.21592613 -0.09342998 -0.08864417 0.3139451
000110 9b 48 af 3e 3a 35 8e 3e 31 2f df 3d 0a f3 df 3d
       0.3423508 0.27774984 0.10897673 0.10935028
000120 4d 6e 76 3e 78 30 2a 3e 7c b3 78 3e 8f 61 8b bd
       0.24065514 0.16620052 0.24287218 -0.06805717
000130 b0 d1 9c 3e 2a c0 59 3e e2 74 a7 3e f2 97 35 3e
       0.3062873 0.21264711 0.32706362 0.17733744
000140 6e 38 a1 be 40 84 3e 3e c2 1b 9c 3d d6 63 47 3e
       -0.31488365 0.18605137 0.07622482 0.19471678
000150 4d fd 9a 3e c3 02 76 3e fe 98 15 be 9b c6 d8 3d
       0.30271378 0.24024491 -0.14609143 0.10584756
000160 a0 ce 90 bc a6 64 00 be a6 56 96 3e 3e 87 ff 3d
       -0.017676651 -0.12538394 0.29362983 0.12476967
000170 9d b0 c0 3c a1 56 b0 3e a2 c7 63 3e 38 6c 0a bd
       0.023521716 0.34441093 0.22244123 -0.03379461
000180 8d 97 88 3e 3d a6 2f 3e 75 0b 7c be aa 8b 8a 3e
       0.26678124 0.17153259 -0.24613746 0.2705968
000190 04 27 2c be 35 8c 39 bd c9 41 55 3d 66 e0 77 3e
       -0.16811758 -0.045299727 0.05206469 0.24206695
0001a0 06 1f b8 3c 4c aa 7c 3e 77 ba 11 3e dc 77 13 bd
       0.02247573 0.24674338 0.14231287 -0.03600298
0001b0 31 96 90 3e 7a aa a7 bd f5 0c 93 3c 11 96 06 be
       0.28239587 -0.08186813 0.017950514 -0.13143183
0001c0 51 63 a6 bd fc 96 a4 3d 78 10 4a 3c 01 2a 1a be
       -0.08124412 0.080366105 0.012333028 -0.15055086
0001d0 55 e7 c0 be f0 98 16 3c fe da a5 3e f7 1a ca be
       -0.37676492 0.009191737 0.3239364 -0.39473698
0001e0 31 e4 2b 3e 61 f8 b5 ba c7 5b aa bb cc 20 bc 3e
       0.16786267 -0.0013883227 -0.005198929 0.36743772
0001f0 31 8a 97 bc e3 db 28 be 4d 7b 1b bc 8a e0 18 3e
       -0.018498512 -0.1649013 -0.009489846 0.14929405
000200 7a 31 2b 3d e0 41 b3 bc 89 65 13 be 30 40 fe 3d
       0.04179523 -0.021881998 -0.14394201 0.124145865
000210 b8 39 1f 3e 61 77 0e be 67 8b 02 3b c5 49 23 3d
       0.15549362 -0.13912727 0.0019919516 0.039865274
000220 fa 05 4c 3e 21 5a 07 bc bd 7e 3b be 4e 37 0e 3e
       0.19924155 -0.0082612345 -0.18310066 0.13888285
000230 81 6b 01 be 93 2a 40 3d a5 ff c7 bc 6b b8 2b bd
       -0.12638666 0.046915602 -0.024413893 -0.04192392
000240 19 86 ac bd 5c 8d 3b 3e 8e 63 aa 3d 90 c7 c8 bd
       -0.084240146 0.18315643 0.0831977 -0.098036885
000250 ff 8d 22 be 88 ef 11 3e 88 e6 23 be 89 6f 96 3d
       -0.1587448 0.1425153 -0.1600591 0.073454924
000260 33 0b 4c be 4d b6 b6 3d 17 09 f1 3d fb 63 c1 bd
       -0.19926147 0.0892149 0.11769312 -0.09442898
000270 81 a0 33 3e 2c b6 30 be 73 fd ef 3d e6 d8 4a be
       0.17541696 -0.17256993 0.117182635 -0.19809303
000280 7f e1 d2 bd 0e fc 8b bc 49 7f b6 bd d9 d0 ae bd
       -0.10296916 -0.017087962 -0.089109965 -0.08535928
000290 90 3e 8d bd a1 a0 11 be 50 54 48 be 53 df 09 3d
       -0.068966985 -0.14221431 -0.19563413 0.033660244
0002a0 53 e9 05 be 18 1b 37 3e 78 f6 c8 3d 53 c3 3b 3e
       -0.13077287 0.17881429 0.09812635 0.18336229
0002b0 9a 5c b6 3c a0 18 25 3e ce 4f 96 3d d2 83 7c 3c
       0.022260953 0.16122675 0.0733944 0.015412288
0002c0 9c e1 5c 3b 12 bc 84 3c 69 5e 06 3e 6a c4 de bd
       0.003370381 0.01620296 0.13121952 -0.10877307
0002d0 f6 cd 54 be ab f7 86 bd 59 c6 16 3e 86 47 f8 3d
       -0.20781693 -0.06590208 0.14724101 0.12123017
0002e0 ed f2 bd 3d 4a 96 7c 3d 3f c8 2d be 25 f1 00 be
       0.0927485 0.061666764 -0.16970919 -0.1259199
0002f0 0c 05 f8 3d 75 10 f8 bd 1f 17 56 3e 73 dd 29 be
       0.121103376 -0.12112514 0.20907257 -0.16588382
000300 dc b6 77 be 41 52 4e be e6 c6 66 3c 36 f7 b7 bd
       -0.24190849 -0.20148565 0.014085507 -0.089826986
000310 02 2d 20 be f8 a8 2c be 21 d8 07 bd 28 3a 51 3e
       -0.15642169 -0.16861331 -0.0331651 0.20432341
000320 2a 66 08 3e f4 d9 65 be 45 e9 14 be 64 f3 84 bd
       0.13320222 -0.22446424 -0.1454211 -0.064917356
000330 6e b4 36 3e de a9 37 3e 8d 58 37 bd f6 97 3e 3e
       0.17842266 0.17935893 -0.044762183 0.18612656
000340 86 a0 47 be 06 33 82 bd 98 b7 5c be 03 b0 be bd
       -0.19494829 -0.06357388 -0.2155441 -0.09310915
000350 85 90 33 3d 39 06 34 3e 5b e9 3f 3e af e9 59 be
       0.043838996 0.17580499 0.18741362 -0.2128055
000360 3e 0b 0e 3d c3 45 76 be 3e b8 92 bd 54 04 80 3d
       0.03467869 -0.2405005 -0.07164048 0.062508255
000370 e9 ed a0 bd ca 3c 48 be fb 83 dc 3d 31 9d 0e 3e
       -0.07857878 -0.19554439 0.10767361 0.13927151
000380 10 20 50 be bb 98 d2 3d bb fe 8b bd 79 60 3c 3e
       -0.20324731 0.10283037 -0.06835695 0.18396176
000390 8e 8a 40 3e c5 93 38 bd 7c 5c 53 bb 6e 71 bc bc
       0.18802854 -0.0450628 -0.003225117 -0.023003306
0003a0 37 c3 48 be 0b 6e 06 be c0 a0 0b 3e 8e dd 95 3d
       -0.19605719 -0.13127916 0.1363554 0.07317649
0003b0 fa 5a c7 bd e6 64 06 be 52 b0 f0 bc 6e 22 73 be
       -0.09734149 -0.13124427 -0.029380951 -0.23743603
0003c0 8b 34 fc bd e1 8b 7b 3d 52 8f cd 3d 2a ea 08 3e
       -0.12314709 0.061412696 0.10037102 0.13370577
0003d0 5c 62 01 3d 1d ab 35 be 61 1b 34 bc 8b 85 16 3e
       0.031587943 -0.17741056 -0.010992856 0.1469938
0003e0 1a 2a 51 be 70 d9 00 3e 3b 83 57 be c1 f2 be 3d
       -0.20426217 0.12582946 -0.21046154 0.093236454
0003f0 32 44 0b 3e 92 d3 12 be ca 7a 4e be eb 86 6a be
       0.13600233 -0.1433852 -0.20164028 -0.2290303

dqn.4.bias f4 [128]
000000 39 e3 f9 3d d4 24 96 bc c0 0f 08 3e 41 ae 99 bc
       0.122015424 -0.018328108 0.13287258 -0.018759849
000010 36 9f dd 3d 5d b1 f6 3d 98 ed b4 bc 49 13 f9 3d
       0.10821383 0.12045548 -0.02208595 0.121618815
000020 94 55 ed bc cc f0 b1 3d 49 ee 42 bc 68 37 02 3e
       -0.02897147 0.086885065 -0.011897632 0.12716448
000030 d3 d2 82 3d d2 83 06 ba a1 4b 1f bc 7f 8c e9 bc
       0.06387868 -0.0005131337 -0.009722621 -0.028509377
000040 dc ba 1c 3d b9 8e 4f 3d 73 c4 91 3d 37 e1 0a 3e
       0.03826414 0.05067322 0.07117548 0.13562475
000050 cf 64 dc 3d 3a 29 01 3e 26 11 c5 bc c2 38 eb bc
       0.10761415 0.12613383 -0.024056029 -0.028713588
000060 d2 4e 19 bc b9 a0 09 bd 22 ca fd 3d c9 38 b3 3c
       -0.009357171 -0.033600543 0.123920694 0.021877663
000070 d2 6e f3 3d 02 bb 08 3e cb 7b 3b 3d 7a 95 0c bc
       0.11886372 0.13352588 0.045772355 -0.00858056
000080 bd 04 84 3d 19 e4 46 3d 72 ad 0c 3e 6e 37 e3 bc
       0.06446216 0.048557375 0.13738039 -0.027736392
000090 9a 94 ac bc 86 f9 f2 3d 4e 43 f6 3d 0c 0d 9e bc
       -0.021066952 0.11863999 0.12024556 -0.01929333
0000a0 94 ec 09 3e 69 94 04 3e 5a ba 89 3d 18 07 fd 3d
       0.13469154 0.12947239 0.06724997 0.12354869
0000b0 df 97 0a 3e f0 7d 86 bc 00 00 00 00 ae 76 17 3e
       0.13534497 -0.016417474 0.0 0.14791366
0000c0 07 d7 bb bc 82 be 97 bc e7 f2 09 3d 94 83 88 bc
       -0.022929681 -0.018523458 0.033678915 -0.016664304
0000d0 96 e1 e3 3d 51 9a f0 3d bc 14 b0 bc 8a 68 fd 3d
       0.111270115 0.117481835 -0.021494262 0.12373455
0000e0 0d 4b 04 3e 16 19 a1 3c a9 7f 02 3e a2 51 b1 bc
       0.12919255 0.019665282 0.12744011 -0.02164537
0000f0 ff 67 e1 bc db f8 88 bc 02 af a7 3d 09 e1 3c 3c
       -0.02751541 -0.016720226 0.08187677 0.011528262
000100 71 f5 11 3d 9b 2d c4 3c a2 05 c7 bc c5 28 c1 bc
       0.03563446 0.023947528 -0.024294678 -0.02357901
000110 a6 24 c4 bc 65 64 9d bc f2 30 fa 3d a8 dd fc 3d
       -0.023943257 -0.01921291 0.12216367 0.12346965
000120 ce ad 3e bc 1c 2a fd 3d 6d fb 95 bc 26 22 a8 bb
       -0.011638118 0.12361547 -0.018308366 -0.005131024
000130 26 54 a7 3d 9f f0 88 3c 1b b4 fc 3d 86 79 d4 bc
       0.08170347 0.0167163 0.1233904 -0.025936853
000140 69 d4 ed 3b 79 f8 29 bc 89 3c a7 bb 14 78 02 3e
       0.0072579873 -0.010374182 -0.005103652 0.12741119
000150 40 9c 26 3d dc 49 02 3e 9d ea 6a 3d 67 51 15 3e
       0.040676355 0.12723488 0.05735265 0.14581834
000160 7f 4d eb 3d 1d e0 bc bb 12 05 11 3d 00 00 00 00
       0.114893906 -0.005764021 0.035405226 0.0
000170 e8 c5 05 3e 89 6a b5 3d cf cd 0d bc 58 7d 83 3c
       0.13063776 0.088582106 -0.008655026 0.01605098
000180 46 7b 31 3d 52 51 58 bb 88 26 b6 bb d6 dc 01 3d
       0.043330453 -0.0033007455 -0.0055587925 0.031704746
000190 77 30 0f 3e 26 a4 5f bc 15 bc 9d 3c e3 a4 04 3e
       0.13983332 -0.013649976 0.019254724 0.12953524
0001a0 8f f6 d1 bc 37 d5 02 3e 9f 98 8b 3d 48 1b 7e bc
       -0.025630264 0.12776648 0.068162195 -0.015509434
0001b0 df 36 2d bd b0 ce fb 3d 78 24 d1 bc a6 6d fc 3d
       -0.042288657 0.12295282 -0.025530085 0.12325601
0001c0 e9 6b f5 3d f2 5e ee 3d b6 20 2d 3d a7 af 5a bc
       0.11983473 0.11639203 0.042267524 -0.013347543
0001d0 d1 cb 3e bc d3 57 98 bc 68 c4 02 3e 9f 8d 0a 3e
       -0.011645273 -0.018596565 0.12770236 0.13530587
0001e0 1a 53 e3 3c 6a d3 8c 3d e1 01 2e bc ba 8d 07 3e
       0.027749587 0.068762615 -0.010620565 0.13237658
0001f0 9e 69 05 bd 54 92 ec 3d 29 fd f2 3d 7e d5 13 3d
       -0.032571428 0.115513474 0.11864693 0.036092274

dqn.6.weight f4 [2, 128]
000000 88 9f e2 3e 2b f5 e1 3d ea 2d 59 3e ca ad fc bd
       0.44262338 0.1103309 0.21208921 -0.12337835
000010 67 a3 a4 bc 20 0f b7 3e f6 ec 2d be be d9 b3 3e
       -0.020097448 0.35753727 -0.16984925 0.35127062
000020 98 b6 7b be a3 d3 b4 bd e2 a3 09 be dc 17 82 3e
       -0.24581373 -0.08829429 -0.13441423 0.25408828
000030 5f a5 c6 bd a2 2a 4b be 4b c6 9b bd ac 4a 32 be
       -0.09699511 -0.19840482 -0.07606181 -0.17411298
000040 19 8f f6 be 2f d5 1c 3f bc 3e 96 be f5 a8 9a 3e
       -0.4815605 0.6126279 -0.29344738 0.3020703
000050 ea 4e 78 3d ed 93 7f 3e ff fe be be fd b8 19 3e
       0.060622133 0.24958773 -0.37303922 0.15011974
000060 cb 0a 1e be d7 0e 79 bb 03 51 c7 3e d1 64 01 bf
       -0.15433805 -0.003800323 0.38928995 -0.5054446
000070 9c b7 d1 3e cc b1 90 3e 55 41 cb 3e bf 3e 91 be
       0.40960395 0.28260648 0.39698282 -0.28368184
000080 8d 0a f1 3d ff 9c 72 3e 7b d9 64 3e 7c 2f 77 be
       0.117695905 0.23692702 0.22348587 -0.24139208
000090 e5 70 77 be e2 e3 67 3d 37 ae a0 3e 55 ee 67 be
       -0.2416416 0.05661381 0.31382915 -0.2264951
0000a0 5a fa a9 3e a2 8a 82 3e ae 7a 5f be d0 25 c4 3d
       0.33198816 0.25496393 -0.21824142 0.09577525
0000b0 60 ce a9 3e a5 74 2b be 70 58 0d be cc 55 10 3e
       0.33165264 -0.16743715 -0.13803267 0.14095229
0000c0 42 90 6d bc ba e5 fc bd 2c d3 88 3d 16 29 62 be
       -0.014499726 -0.12348504 0.06680903 -0.22085986
0000d0 f7 8e f9 3d 35 a1 0c 3e 48 20 8a 3d f3 29 86 3e
       0.121854715 0.1373337 0.067444384 0.2620388
0000e0 61 15 a9 3e ac 4e c2 3e e5 aa cd 3e 3e 4e e8 3c
       0.33024123 0.37950647 0.40169445 0.028357621
0000f0 89 f6 c6 3d 3a cc cc bd e6 71 dc 3e d8 b2 8f 3e
       0.097149916 -0.099998906 0.43055648 0.28066134
000100 b0 83 35 3e 48 81 b2 be e2 88 81 be 3e 26 11 3d
       0.17726016 -0.3486426 -0.25299746 0.03543686
000110 7b 02 96 3c c0 1d 45 be 7b 70 b9 3e 67 a7 1f 3e
       0.01831173 -0.1924963 0.36218628 0.15591203
000120 ff e2 f7 3d 6e 6a 9d 3e d8 ca 83 be 00 c3 84 be
       0.12103843 0.30745262 -0.25740695 -0.25930023
000130 5f 6c 41 bd 82 e1 bc be 42 3c 9a 3e d6 b5 52 be
       -0.04722249 -0.368908 0.30124098 -0.20577177
000140 62 f8 06 bf bb dd 28 3e 81 1b e2 3d 4c 79 be 3e
       -0.5272275 0.16490833 0.11040402 0.37201917
000150 02 c1 c5 be 76 48 e6 3e 27 13 75 be 0d de 32 3e
       -0.38623816 0.44977158 -0.23933087 0.17467518
000160 74 bf 45 3e 03 e5 9d 3e 4b ca e2 be 2f 29 80 3c
       0.19311315 0.30838785 -0.44294962 0.015644638
000170 47 2f 12 3e 3f 59 dd bd fc 4c d7 bd 0f 9f 12 bf
       0.14275847 -0.10808038 -0.105127305 -0.57273954
000180 6c a6 b6 be ac 07 b5 be eb 44 83 be 93 1e 18 3f
       -0.35673845 -0.35357416 -0.25638518 0.5942165
000190 5d 6c 9e 3e fa 13 1c 3d 3c 7d db be 7b 5e 12 3e
       0.3094205 0.03810499 -0.42868984 0.14293854
0001a0 4d d0 52 bd 29 d3 a4 3e ea cd 90 bd f1 99 6d be
       -0.051468182 0.32192352 -0.07070525 -0.23203255
0001b0 3c 39 8c be 00 71 6e 3e d5 34 99 3d 1c 57 bb 3d
       -0.27387416 0.23285294 0.0748078 0.09147474
0001c0 ab b9 c6 3e 1b 3b b4 3e a1 e8 88 be 5c fe 32 be
       0.38813528 0.35201344 -0.26739982 -0.17479843
0001d0 24 b8 34 be 8a 7c 1e be 5f ef cf 3e 6a ef 81 3e
       -0.17648369 -0.15477195 0.40612313 0.2537797
0001e0 74 41 90 be e7 e7 3e be 05 e7 90 3d a1 5e 61 3e
       -0.28174937 -0.18643151 0.070753135 0.22008754
0001f0 54 f9 8a bd 4a 2a 2d 3d 5c 90 3c 3e 54 17 a7 be
       -0.06785837 0.042276658 0.18414444 -0.32634985
000200 24 c6 f8 3d d8 c5 87 be 53 50 ef 3d 8f ad 6b bc
       0.12147167 -0.2651813 0.116852425 -0.014384641
000210 6f a3 ea 3e d0 58 d5 3e c9 02 e2 3d ef 8a c7 3e
       0.45827815 0.4166932 0.110356875 0.38973185
000220 d2 70 2c 3c 6d 95 e3 3e b3 93 18 be c6 30 82 3d
       0.010524945 0.4444994 -0.14900093 0.06356959
000230 bc c5 b8 3e fd 94 88 be a3 08 8b be 0e b8 3d 3e
       0.3608836 -0.2667617 -0.27155027 0.18527243
000240 2b ce b2 be d1 ce cd 3d c2 a0 b8 be 00 49 2f 3e
       -0.3492292 0.10049213 -0.36060148 0.17117691
000250 ce 46 c1 3e 8c db cd 3e 4c ca c5 be 59 46 74 be
       0.37749332 0.40206563 -0.38630903 -0.2385496
000260 86 7a e1 be 4e ea 27 be ed 48 93 3e 04 e1 62 be
       -0.4403879 -0.16397974 0.28766575 -0.22156149
000270 cc 13 dc 3c 85 c1 84 3d 5d c2 3b be 09 4c e5 3d
       0.026864909 0.064822234 -0.18335862 0.11196143
000280 96 28 90 3e 65 e0 da bd 4a 87 9a 3d 40 64 6f be
       0.28155965 -0.10687331 0.075453356 -0.23378086
000290 5d da 82 be 48 5e 6a 3e ba 3b bd 3e da 4b 8a be
       -0.25557223 0.22887528 0.3695963 -0.27010995
0002a0 8e bf 34 3d 9a 6e 75 3e 99 bb e2 3e 24 77 85 3e
       0.044127993 0.23967972 0.4428375 0.2606746
0002b0 36 57 b4 3e 04 40 10 be 88 76 19 3e a8 37 e1 3d
       0.35222787 -0.1408692 0.14986622 0.10996944
0002c0 c5 79 5e be 24 a0 3d bd e8 57 ba be c3 fa 88 be
       -0.21726139 -0.0462953 -0.36395192 -0.26753816
0002d0 0a 3e 8f 3e 96 a6 ba 3e c3 8e d7 be 4c a8 c9 3e
       0.2797702 0.3645522 -0.42101106 0.39386213
0002e0 2b 1c 40 3e c9 c2 43 be 70 bb cc 3e e0 b3 e5 bd
       0.18760745 -0.19117273 0.39986753 -0.11215949
0002f0 d9 8b 8d be c1 cb ee bd 69 3f 9f bd f1 4b 01 be
       -0.27645758 -0.11659957 -0.077757664 -0.12626626
000300 cd 4a 8c be d7 83 4f be cf 38 60 be e6 9b e7 be
       -0.27400818 -0.20265137 -0.21896671 -0.4523613
000310 e7 a6 a9 bc 99 b7 82 3e 01 e5 36 3d 41 60 c5 3e
       -0.020709468 0.255307 0.04465199 0.38549998
000320 46 da 61 be 40 fd ab 3e 9c c5 4d be 10 d2 ec be
       -0.22055921 0.33591652 -0.20094913 -0.46254015
000330 54 57 ee 3e 16 25 db be 13 48 c3 3e e4 bb 0e 3e
       0.46551 -0.42801732 0.38140926 0.13938862
000340 d8 6c 27 3e ce ee c6 bd ce bf c4 be 51 43 6e 3e
       0.16350114 -0.09713517 -0.38427585 0.23267867
000350 e2 6e e7 3d 3c b6 6f 3e 64 78 b9 3e c7 e9 f9 3d
       0.11300446 0.2340936 0.36224663 0.122027926
000360 49 cd b5 3d 73 f5 1e be 73 4f af be be 8f 93 3e
       0.08877046 -0.15523319 -0.34240302 0.28820604
000370 b8 c2 1d 3e e0 8e cc 3e b0 c1 43 be 63 d5 5a be
       0.1540631 0.39952755 -0.19116855 -0.21370463
000380 41 0c 7a be 85 7e 3b bc c2 89 d1 bd 34 2d 3d 3d
       -0.24418737 -0.011443739 -0.10231353 0.046185687
000390 70 08 04 3e 73 e2 f9 be d5 16 68 3e 41 7d 33 3e
       0.12893844 -0.4880558 0.2266496 0.1752825
0003a0 4f f8 25 be 88 cf 8a 3e 51 d4 99 3e f4 36 67 bd
       -0.16208003 0.2711146 0.30044797 -0.05644889
0003b0 da 19 43 bd 47 ab a5 3e 13 08 69 be 70 d6 90 3e
       -0.047632076 0.32357237 -0.22756986 0.28288603
0003c0 78 e9 67 3d 94 dc b3 bc 6c d8 a4 be a1 c4 5d be
       0.056619138 -0.021955766 -0.32196367 -0.21657039
0003d0 85 d9 59 be f0 23 8d be a4 65 9b 3d 66 24 87 3e
       -0.21274383 -0.2756648 0.07587746 0.26394957
0003e0 0b dd e2 bd ef ff cf 3e 0b f7 6c be bf 67 42 3e
       -0.11077317 0.4062495 -0.23141114 0.18984888
0003f0 5b 34 07 3c 26 a7 b5 3e d0 20 d5 3e 63 7a 0c be
       0.008252229 0.35479087 0.41626596 -0.13718562

dqn.6.bias f4 [2]
000000 f1 ff 00 3e 57 ad e7 3d
       0.12597634 0.11312359
