ex8/lunar_lander.pt (torch, 141569 bytes, 8 tensors)

dqn.0.weight f4 [128, 8]
0	0xbd290496	-0.04126414
1	0x3e1b4056	0.15161261
2	0x3c42922a	0.011875669
3	0xbefab2fc	-0.4896468
4	0x3eab98fc	0.33515155
5	0x3db2ae4e	0.08724652
6	0x3e126096	0.14294657
7	0xbde9cd60	-0.11416125
8	0x3d99d108	0.07510573
9	0x3da26de3	0.079311155
10	0x3f33f161	0.7029019
11	0x3eb36ff9	0.35046366
12	0x3e03ad11	0.12858988
13	0x3e26f452	0.16304138
14	0xbdf9fc28	-0.12206298
15	0x3e913387	0.28359625
16	0xbe994d20	-0.29941654
17	0xbf442f00	-0.76634216
18	0x3e4f2671	0.20229508
19	0xbc23af09	-0.009990462
20	0x3e32a2d8	0.17444932
21	0xbd91fcfb	-0.0712833
22	0xbe95ed7d	-0.29282752
23	0xbcce6d76	-0.02519868
24	0x3d8cad90	0.06869042
25	0xbf533a5e	-0.82510936
26	0xbe047530	-0.12935328
27	0x3cb17c53	0.021665728
28	0xbea17b89	-0.31539562
29	0x3e3c2404	0.18373114
30	0xbcfc9151	-0.030831011
31	0xbdbcd977	-0.092211656
32	0xbeb0fb59	-0.34566763
33	0x3e573d54	0.21019489
34	0xbc3d4142	-0.011551203
35	0x3eb361d4	0.35035574
36	0x3e96e964	0.29474938
37	0x3ecbd55d	0.3981122
38	0x3aec1651	0.0018012022
39	0xbca19344	-0.019723542
40	0x3e1f078c	0.15530223
41	0x3d2515c4	0.04030396
42	0xbc966af6	-0.01836155
43	0x3e197aee	0.149883
44	0x3e5ccd51	0.21562697
45	0x3e8a4950	0.27009058
46	0x3eaba894	0.33527052
47	0xbd326337	-0.04355165
48	0x3e478b82	0.19486812
49	0xbe908af1	-0.28231004
50	0xbd2ab0e1	-0.04167259
51	0xbee5fb6a	-0.44918376
52	0x3e0573dc	0.13032478
53	0xbe2a50b1	-0.16632344
54	0x3ca20def	0.019782035
55	0x3e5380f2	0.20654657
56	0x3ee0df2e	0.43920273
57	0xbec2b55d	-0.38028994
58	0x3e93457d	0.28763953
59	0x3d781b1d	0.060572732
60	0xbdf3a725	-0.11897115
61	0x3d992a19	0.074787326
62	0x3e3b7e35	0.18309863
63	0x3d74aded	0.05973618
64	0x3ed68be6	0.4190361
65	0xbe0482c3	-0.12940507
66	0x3edc933b	0.43081078
67	0xbdf361e4	-0.118839055
68	0xbe323eec	-0.17406815
69	0x3d9cf4d1	0.076638825
70	0xbdf1804e	-0.1179205
71	0xbcc55bbd	-0.024091596
72	0x3cf50925	0.029911587
73	0x3c71e336	0.014763644
74	0xbcacef2c	-0.02111014
75	0x3cdac190	0.026703626
76	0x3f752204	0.9575503
77	0xbcdd5233	-0.027016735
78	0x3e2fb66f	0.17159437
79	0x3c990e20	0.018683493
80	0x3e3e650d	0.18593235
81	0x3cd1c890	0.025608331
82	0x3e9c60eb	0.30542693
83	0xbdb675fa	-0.08909221
84	0xbf2cf3b8	-0.67559385
85	0x3c016e53	0.0078998385
86	0xbde98567	-0.114023976
87	0x3e5580bf	0.20849894
88	0xbe729f08	-0.23693478
89	0xbd409403	-0.047016155
90	0xbe1e2448	-0.15443528
91	0xbe9dea2b	-0.30842718
92	0x3e003b36	0.12522587
93	0x3c15e124	0.009147916
94	0x3ea2bbb6	0.31783837
95	0xbe8ca74a	-0.2747138
96	0x3cf6692c	0.030079447
97	0xbf1022e5	-0.56303245
98	0xbe83197f	-0.2560539
99	0x3ed16de4	0.40904152
100	0xbe4aa7cb	-0.1979057
101	0xbc99fbca	-0.01879682
102	0x3e738f56	0.23785147
103	0x3e9419c6	0.28925914
104	0xbe4618f1	-0.19345452
105	0xbd8eb897	-0.069688015
106	0xbe7945d4	-0.24343044
107	0xbe8dd126	-0.2769863
108	0xbf1896c7	-0.5960507
109	0x3e526988	0.2054807
110	0xbe55286e	-0.20816204
111	0x3c94dd8f	0.018172054
112	0xbdf04c4f	-0.11733305
113	0xbdbe359b	-0.09287568
114	0xbe548a09	-0.20755781
115	0x3d26c0e5	0.040711302
116	0x3e98c61c	0.29838645
117	0x3ee7885b	0.45221218
118	0x3e8f9e93	0.2805067
119	0xbf032317	-0.5122542
120	0xbc8077fa	-0.01568221
121	0x3eb453a9	0.35220078
122	0xbe8287cd	-0.25494233
123	0xbe1a3ce5	-0.15062292
124	0x3ddb094a	0.10695131
125	0xbe990689	-0.29887798
126	0xbe3b5ed4	-0.18297893
127	0xbc85ee19	-0.016348885
128	0xbe23ae9b	-0.15984575
129	0x3e52e861	0.20596458
130	0x3eb09305	0.34487167
131	0xbe8b9078	-0.27258658
132	0x3e5be021	0.21472217
133	0x3ee646a0	0.44975758
134	0xbeb427b7	-0.3518655
135	0xbe585c72	-0.21129015
136	0x3d07c198	0.03314361
137	0x3c09c2f5	0.008408298
138	0xbe43fe1f	-0.19139908
139	0x3f672208	0.902863
140	0x3e368b21	0.17826511
141	0xbea3bb7b	-0.31978974
142	0x3d56af8f	0.05241352
143	0x3e46405f	0.19360493
144	0xbe8a902b	-0.27063116
145	0xbe334c3e	-0.17509553
146	0xbe84123d	-0.25795165
147	0xbaf4ad32	-0.0018667339
148	0x3d469b90	0.0484882
149	0xbe2744a4	-0.16334778
150	0xbe6d946e	-0.23201153
151	0x3e826444	0.25467122
152	0x3e880e8a	0.26573592
153	0xbcad51ba	-0.021157134
154	0xbdea3e5b	-0.114376746
155	0xbd50537e	-0.050860874
156	0xbe38ec67	-0.1805893
157	0x3f03083e	0.5118445
158	0xbd88aa04	-0.06673053
159	0xbe207773	-0.15670566
160	0x3e6fc744	0.23415858
161	0xbe21e3df	-0.15809582
162	0x3ec8c2b4	0.39211047
163	0xbe0e8285	-0.13916977
164	0xbe6a8ffe	-0.22906491
165	0x3e9d99dc	0.30781448
166	0xbe3b235a	-0.18275204
167	0xbe6992f2	-0.22809961
168	0x3dccb623	0.09995677
169	0x3e8bb63c	0.2728747
170	0x3deec788	0.11659151
171	0xbeab07a3	-0.33404264
172	0x3dce93de	0.10086797
173	0xbeb255f7	-0.3483121
174	0xbeaeeb64	-0.34163964
175	0x3e4d5788	0.20052922
176	0xbe0d7c4a	-0.13816944
177	0xbe157e34	-0.14598924
178	0x3e09f2ac	0.13471478
179	0xbc127359	-0.008938634
180	0xbebb1530	-0.36539602
181	0xbedb2ae7	-0.4280617
182	0xbee34961	-0.4439192
183	0x3e7c358c	0.24629802
184	0x3e123d7b	0.14281265
185	0x3e0e6407	0.13905345
186	0xbe900f55	-0.28136697
187	0x3e8ab4a1	0.27090934
188	0x3ea7c27e	0.32765573
189	0x3e75eaaa	0.24015298
190	0xbe75a55a	-0.23988858
191	0xbea9dc16	-0.33175725
192	0x3e3ea969	0.18619312
193	0xbcbcf210	-0.023064643
194	0xb9ca7583	-0.00038615995
195	0xbd01df0c	-0.031706855
196	0x3f37bee6	0.7177566
197	0xbe17ddf6	-0.14830765
198	0xbdd7b781	-0.105330475
199	0xbe686eee	-0.22698566
200	0x3e6f8c1a	0.23393288
201	0xbd37ac9a	-0.04484234
202	0xbd9c0e32	-0.07619895
203	0xbd9be232	-0.07611503
204	0x3f4fd6ae	0.8118695
205	0x3c9f6c78	0.019460902
206	0xbe9b8f13	-0.30382594
207	0xbc088600	-0.008332729
208	0x3ec296fd	0.3800582
209	0xbe699aa0	-0.22812891
210	0x3c134f73	0.00899111
211	0xbea52527	-0.32254907
212	0xbe9c496f	-0.30524775
213	0x3bea5bd2	0.007152059
214	0xbea9a3a6	-0.33132666
215	0x3d8d3b0a	0.068960264
216	0xbe96bc33	-0.2944046
217	0xbeba8ff0	-0.3643794
218	0xbefb83ac	-0.49123895
219	0x3eeb7f97	0.4599578
220	0x3e7755ef	0.24153875
221	0x3e1f66ec	0.15566605
222	0xbe865d73	-0.2624317
223	0x3e37766a	0.17916265
224	0xbe739035	-0.2378548
225	0x3e61261d	0.21987195
226	0x3f0b8ba7	0.5450997
227	0x3eb00a4e	0.34382862
228	0x3eb98216	0.3623206
229	0x3efbf92f	0.4921355
230	0xbd92e064	-0.07171705
231	0x3dbeedca	0.093226984
232	0xbe108f1c	-0.14117092
233	0xbf197123	-0.5993826
234	0x3e491c94	0.19639808
235	0x3ed88595	0.42289415
236	0xbb20be7e	-0.0024527605
237	0x3e729bf0	0.23692298
238	0x3e3d0607	0.1845933
239	0xbeed363a	-0.46330434
240	0xbc5a7dec	-0.013335686
241	0x3e7ba5b0	0.24574924
242	0x3d110270	0.035402715
243	0x3dd9e3f4	0.10639182
244	0xbe9c957b	-0.30582795
245	0xbe360bc1	-0.17777921
246	0xbd5f46fc	-0.054511055
247	0x3ecc1b48	0.39864564
248	0x3d6155d4	0.055013493
249	0xbec9a36d	-0.39382496
250	0x3e5c84fb	0.21535103
251	0xbe8ee0bd	-0.27905837
252	0xbe50332e	-0.20332024
253	0xbf07a060	-0.5297909
254	0x3e485da4	0.19566971
255	0x3e473835	0.19455035

dqn.0.bias f4 [128]
0	0x3d90bc48	0.07067162
1	0x3c784f58	0.015155636
2	0x3e00fa8c	0.12595576
3	0x3e0dfcb0	0.13865924
4	0x3d7355db	0.05940805
5	0xbcadbd1f	-0.021208344
6	0xbc0a62ac	-0.008446377
7	0xbe251f09	-0.1612512
8	0x3d5a4ebb	0.05329774
9	0xbbf76925	-0.007550376
10	0xbd8631bd	-0.065524556
11	0xbd15fb89	-0.036616836
12	0x3e1571ea	0.14594236
13	0x3bfb626e	0.007671646
14	0x3dd0e122	0.10199191
15	0x3cce6089	0.025192516
16	0x3dc9ddc0	0.098567486
17	0x3c5176b1	0.012784646
18	0x3e6ee6eb	0.23330276
19	0xbe2fb994	-0.17160636
20	0x3dadd4f1	0.08487881
21	0xbc017c34	-0.0079031475
22	0x3e0385e5	0.12844045
23	0xbd62a1f0	-0.055330217
24	0x3c318c58	0.010836683
25	0x3c1c0bdc	0.009524312
26	0xbd990729	-0.07472069
27	0xbe25aec6	-0.16179952
28	0xbc6df682	-0.014524104
29	0x3e32ca45	0.17459972
30	0xbd40b652	-0.047048874
31	0x3d76abcb	0.06022243
32	0x3c8a8133	0.01690731
33	0x3dc96d4b	0.09835299
34	0x3d6a3499	0.057179067
35	0xbc98f125	-0.018669674
36	0x3d75a3a4	0.059970513
37	0x3d6a65a2	0.05722583
38	0xbdd78a76	-0.10524456
39	0x3d51400e	0.051086478
40	0x3dab8645	0.08375219
41	0xbdc4a605	-0.09601978
42	0x3b8c1595	0.0042750337
43	0x3dc18ce0	0.09450698
44	0x3d19d4ff	0.037556645
45	0x3e4aac4e	0.19792292
46	0xbd76d767	-0.060264017
47	0x3dbc7eff	0.0920391
48	0xbdb41623	-0.08793285
49	0x3da0d4fa	0.07853122
50	0x3d4d2ba9	0.050090466
51	0xbd8d7ea6	-0.06908922
52	0x3cdc5a00	0.026898384
53	0x3dd75947	0.10515075
54	0x3d04d023	0.032425057
55	0xbb63621e	-0.0034695934
56	0x3cacbcab	0.021086058
57	0xbd5bb11f	-0.053635713
58	0xbbe74844	-0.0070581753
59	0xbd611d99	-0.054959867
60	0x3e389f64	0.18029553
61	0x3dfe9cdb	0.124322616
62	0x3d449cbb	0.048001032
63	0xbd3bdae7	-0.04586306
64	0xbd6a55ec	-0.057210848
65	0x3d59a46b	0.053135317
66	0x3d3816cb	0.044943612
67	0x3ccc4705	0.024936209
68	0xbd327d57	-0.043576565
69	0xbbabba66	-0.0052407263
70	0x3d556fc5	0.052108545
71	0xbcc00b7f	-0.023442982
72	0x3ce0688a	0.027393598
73	0x3da93503	0.08262064
74	0xbe24690b	-0.16055696
75	0xbc9a7b8b	-0.018857738
76	0x3ddad40e	0.106849775
77	0x3dd9f599	0.10642547
78	0x3dd57690	0.104230046
79	0xbd2bcc41	-0.04194284
80	0xbdfae7d3	-0.12251248
81	0x3c2b727b	0.010464306
82	0xbc547669	-0.012967684
83	0xbe5d9f4c	-0.21642798
84	0x3d8a4652	0.06751694
85	0x3d617593	0.05504377
86	0x3d933613	0.07188048
87	0x3dbf62d5	0.093450226
88	0xbc34861e	-0.011018304
89	0x3e461ef0	0.19347739
90	0x3da87fd9	0.0822751
91	0x3ddd6a92	0.10811342
92	0xbe21904a	-0.15777698
93	0x3d87ea79	0.06636519
94	0x3da22344	0.07916883
95	0x3dd3d53c	0.103434056
96	0x3e140244	0.1445399
97	0x3d832178	0.06402868
98	0x3b42b103	0.0029707558
99	0x3b69d5e8	0.0035680477
100	0x3d96e579	0.07367987
101	0x3d853cf1	0.06505764
102	0x3df4f806	0.11961369
103	0x3c9a2f8c	0.0188215
104	0x3dce2fa7	0.10067683
105	0xbdfe7eb3	-0.1242651
106	0x3d876168	0.06610376
107	0xbe215eac	-0.1575877
108	0xbe585729	-0.21126999
109	0xbcec3bd3	-0.02883712
110	0x3d786b1b	0.06064902
111	0xbca80bf6	-0.020513516
112	0x3d7a1556	0.061055504
113	0xbe1db638	-0.15401542
114	0x3e0645d3	0.13112573
115	0x3e1a4f17	0.15069233
116	0x3e194373	0.14967136
117	0x3de59515	0.11210076
118	0x3d232bd1	0.03983671
119	0xbd86bf09	-0.06579406
120	0xbc725dc8	-0.014792867
121	0xbcd8f29a	-0.026482869
122	0x3d863bf8	0.06554407
123	0xbc17eb6d	-0.0092724385
124	0x3d561c73	0.052273225
125	0xbba2fd3a	-0.0049740346
126	0x3e22e4a2	0.15907529
127	0x3e04880e	0.12942526

dqn.2.weight f4 [128, 128]
0	0xbe4fd5e2	-0.20296434
1	0xbd3ed9da	-0.04659448
2	0xbe5ff679	-0.21871366
3	0xbe6b92e6	-0.23005256
4	0x3e82cfda	0.25549203
5	0x3cb91017	0.02259068
6	0xbc2007d7	-0.009767494
7	0xbbdf0a8a	-0.0068066763
8	0x3dfc22c6	0.1231132
9	0xbeb4a06e	-0.35278648
10	0x3edc7b14	0.4306265
11	0x3e2b1d41	0.16710378
12	0xbe3fe7f9	-0.18740834
13	0xbe249a4e	-0.16074488
14	0xbc8b56de	-0.017009195
15	0x3d9e75f3	0.07737341
16	0xbe20fe97	-0.15722118
17	0xbf534480	-0.825264
18	0xbdc7e136	-0.097597525
19	0x3e4693ab	0.19392268
20	0xbea2e293	-0.31813487
21	0x3e4895aa	0.19588342
22	0x3e69432a	0.22779527
23	0x3d498b12	0.049204893
24	0x3d1de087	0.038544204
25	0xbe25a19a	-0.16174927
26	0x3e6ed384	0.23322874
27	0x3bc21f30	0.005924128
28	0x3e11d37b	0.1424083
29	0xbe3a5922	-0.18198064
30	0x3e636a1c	0.22208446
31	0x3e988bbd	0.29794112
32	0x3b393017	0.0028257424
33	0x3e7fe38d	0.24989147
34	0x3debcb3c	0.11513373
35	0xbd3a8c58	-0.045544
36	0x3e5af2e9	0.21381725
37	0xbe0e04cf	-0.13869022
38	0x3e23f5e5	0.1601177
39	0xbe4109d3	-0.18851404
40	0x3e256be6	0.16154441
41	0xbe63cc16	-0.22245821
42	0x3db60a19	0.08888645
43	0xbd95c01c	-0.073120326
44	0x3e8eae76	0.27867478
45	0x3e09dfbf	0.13464259
46	0xbe804aa2	-0.2505694
47	0xbc7a1a08	-0.015264995
48	0xbe6304d1	-0.22169806
49	0x3e09e6ad	0.13466902
50	0x3df2b852	0.118515626
51	0x3e90a3eb	0.2825006
52	0x3e19dcd6	0.15025648
53	0x3dbbd73b	0.09171911
54	0x3e4b0f37	0.19830023
55	0x3e010f70	0.12603545
56	0x3e993775	0.29925123
57	0x3d6d4350	0.057925522
58	0xbd9edf45	-0.07757429
59	0xbd02a639	-0.031896804
60	0xbeae5051	-0.34045652
61	0xbd76c967	-0.060250666
62	0x3db14702	0.08656122
63	0xbd605dd3	-0.054776978
64	0x3e94d1ac	0.29066217
65	0x3c9a39ab	0.018826326
66	0xbcc84395	-0.024446288
67	0x3c291697	0.010320327
68	0x3dae0107	0.0849629
69	0x3e4ba625	0.19887598
70	0xbda13cb2	-0.07872905
71	0x3e52686c	0.20547646
72	0x3e8c7828	0.27435422
73	0x3df06ed4	0.11739889
74	0x3e4a9cf9	0.19786443
75	0x3e10f9e3	0.14157824
76	0x3e0a9639	0.13533868
77	0xbc38be68	-0.011275865
78	0xbdb46b7c	-0.088095635
79	0xbe90a8d3	-0.28253803
80	0x3d813837	0.0630955
81	0x3e4b01d9	0.19824924
82	0x3d8b1479	0.06791014
83	0xbd244240	-0.040102243
84	0xbdf82590	-0.121165395
85	0x3dc09925	0.0940421
86	0xbdb59847	-0.08866935
87	0x3e8d2f9e	0.27575392
88	0xbe39e9c5	-0.18155582
89	0xbe0477a3	-0.12936263
90	0x3dba5501	0.090982445
91	0x3e5cd91a	0.21567193
92	0x3e8c94ef	0.27457377
93	0xbe626a4f	-0.22110866
94	0xbdbd7751	-0.092512734
95	0xbe4130f4	-0.1886633
96	0xbe50b703	-0.20382313
97	0xbde54611	-0.11195005
98	0x3e97761d	0.295823
99	0xbf429a2b	-0.7601649
100	0xbe90663d	-0.28203002
101	0x3d649977	0.055810418
102	0xbdf80159	-0.12109632
103	0x3e8c355c	0.2738446
104	0x3f083db7	0.5321917
105	0x3e86e315	0.26345125
106	0xbe694c2d	-0.22782965
107	0xbdd4b083	-0.103852294
108	0x3ea2f447	0.31826994
109	0x3e036101	0.12829973
110	0xbea9670f	-0.3308644
111	0x3e1262ef	0.14295553
112	0xbd7d4d7b	-0.06184147
113	0xbcf61823	-0.030040806
114	0x3e309bc0	0.17246914
115	0xbe218903	-0.15774922
116	0xbec060d6	-0.3757388
117	0xbd92b042	-0.07162525
118	0x3d6676d8	0.056265682
119	0xbe120b58	-0.1426214
120	0x3ea01037	0.3126237
121	0x3e8bc372	0.2729755
122	0xbd843395	-0.06455151
123	0xbe169d61	-0.14708473
124	0x3e8530a2	0.26013666
125	0xbdf7405d	-0.12072823
126	0xbdf7fae6	-0.12108402
127	0x3e1a3f69	0.15063252
128	0x3e584666	0.21120605
129	0x3e3485a1	0.176291
130	0xbd3fb223	-0.046800744
131	0xbdd9f1a3	-0.10641792
132	0x3e0744ac	0.1320979
133	0x3e66a1d9	0.22522677
134	0xbe1d92f7	-0.15388094
135	0xbdc7d8c2	-0.0975814
136	0xbeb79141	-0.35853007
137	0xbcb3ef33	-0.021964645
138	0xbeba072b	-0.36333594
139	0x3ddb726d	0.10715184
140	0x3d00cd9b	0.03144608
141	0xbe7061ba	-0.2347478
142	0x3e60b795	0.21945031
143	0x3d189a52	0.037256546
144	0xbd6307b8	-0.055427283
145	0x3f094f08	0.5363622
146	0xbe9b673c	-0.303522
147	0x3df6cd0c	0.12050828
148	0xbe3c80b4	-0.18408471
149	0xbe82309b	-0.25427708
150	0xbea0006f	-0.3125033
151	0x3e1bbf93	0.15209799
152	0x3cc45156	0.023964565
153	0x3e074d1d	0.1321301
154	0xbcf95b4e	-0.030439045
155	0x3e437171	0.19086243
156	0xbdf79992	-0.12089838
157	0x3d6801f1	0.056642476
158	0xbeeacc92	-0.458592
159	0x3d83a68c	0.06428251
160	0xbe2d4ef0	-0.16924644
161	0xbe48cc42	-0.19609168
162	0xbec5aeca	-0.38609916
163	0x3e26d0d5	0.162906
164	0x3cab85f6	0.020937901
165	0xbd9dc665	-0.077038564
166	0xbf0804c4	-0.5313227
167	0x3d68491b	0.056710344
168	0xbd033a91	-0.032038275
169	0xbe4d6430	-0.2005775
170	0xbd21466c	-0.0393738
171	0x3e08c8e2	0.1335788
172	0x3d35c6c2	0.044379003
173	0xbdd5532f	-0.10416257
174	0xbe3e1069	-0.18560947
175	0xbcb89578	-0.02253221
176	0xbe0234cf	-0.12715457
177	0x3d1f5f33	0.03890915
178	0xbe95ec3d	-0.29281798
179	0x39f1c037	0.00046110313
180	0xbdd09b19	-0.101858325
181	0xbdf7e38d	-0.12103949
182	0x3cece47c	0.028917544
183	0x3b4dda30	0.0031410567
184	0x3db18ca0	0.086694
185	0xbdde2bed	-0.10848222
186	0xbdde8625	-0.1086543
187	0x3d502750	0.05081874
188	0x3e450b51	0.19242598
189	0xbdd7f1c7	-0.10544162
190	0xbd997164	-0.07492331
191	0xbd394131	-0.045228187
192	0x3e5384b5	0.20656092
193	0xbee10332	-0.4394775
194	0xbdc5e132	-0.09662093
195	0x3d3d27be	0.04618048
196	0x3c5efe4f	0.013610437
197	0xbeacc6e3	-0.3374549
198	0x3d1bcdb8	0.038037986
199	0x3dc7e695	0.09760777
200	0xbe288958	-0.16458642
201	0x3dad10d0	0.08450472
202	0x3d3ecf8a	0.046584643
203	0xbcdf06c0	-0.027224898
204	0x3e66b4e3	0.2252994
205	0xbe245137	-0.16046606
206	0xbec77c38	-0.3896196
207	0xbe8f9371	-0.28042176
208	0xbe345e71	-0.17614152
209	0x3d327d26	0.043576382
210	0xbddd6f4a	-0.10812242
211	0x3cae70bc	0.02129399
212	0x3d94fc5c	0.07274696
213	0xbdf2f74b	-0.11863574
214	0x3dab3eb3	0.08361568
215	0xbde7d5c8	-0.113200724
216	0x3e5df612	0.216759
217	0xbe647e41	-0.22313787
218	0xbef717e9	-0.4826043
219	0xbe0acbf2	-0.13554361
220	0xbeb9d0f8	-0.36292243
221	0x3d98c326	0.074590966
222	0x3d258a20	0.04041493
223	0x3db2914a	0.08719118
224	0xbe1ead62	-0.15495828
225	0x3e2cb5da	0.16866246
226	0xbd8cde3b	-0.068783246
227	0xbef387e3	-0.4756461
228	0xbe235492	-0.1595023
229	0xbe4f3c0b	-0.20237748
230	0xbe532154	-0.20618182
231	0x3d20bff4	0.03924556
232	0xbe85d8ba	-0.26141912
233	0x3d1ad44d	0.037800122
234	0x3de88f68	0.113554776
235	0xbe0ffe97	-0.14061962
236	0xbd7698b7	-0.060204234
237	0x3dca3d51	0.098749764
238	0xbe0c45e1	-0.13698532
239	0xbe3f6014	-0.18688995
240	0x3e25c503	0.16188435
241	0x3e09c8fd	0.13455577
242	0xbe985a49	-0.29756382
243	0xbc17809e	-0.009246973
244	0xbe1082c4	-0.14112383
245	0xbdb60369	-0.08887369
246	0xbe0affce	-0.13574144
247	0xbec8ee43	-0.3924428
248	0xbd808e5e	-0.062771544
249	0x3e3db6ce	0.18526766
250	0xbcd5f6ea	-0.026118714
251	0xbde49f79	-0.111632295
252	0xbe68a503	-0.22719197
253	0xbe74a771	-0.23891999
254	0xbee3b051	-0.44470456
255	0xbe965072	-0.2935825

dqn.2.bias f4 [128]
0	0xbda9b558	-0.08286542
1	0xbd435934	-0.047692493
2	0x3d9a94b0	0.07547891
3	0xbe0596e8	-0.13045847
4	0xbd1fcb9a	-0.03901253
5	0xbc85cba0	-0.016332448
6	0x3e153f6d	0.14574976
7	0x3d5f90a7	0.05458131
8	0x3e0c5c2c	0.13707036
9	0x3d9bb90b	0.076036535
10	0xbd41ae3f	-0.047285315
11	0x3ccd807b	0.025085678
12	0x3d8ea73e	0.06965493
13	0x3ced5e3a	0.028975595
14	0x3d9bb6ec	0.07603249
15	0xbc8890eb	-0.016670665
16	0x3d6d0ef3	0.057875585
17	0x3d36d9a7	0.044641163
18	0xbd0962f5	-0.03354164
19	0x3db031a3	0.086032175
20	0x3dd60a86	0.10451226
21	0x3e24ba38	0.16086662
22	0x3a01f51f	0.00049574854
23	0x3d442aaa	0.04789225
24	0x3d88f693	0.06687655
25	0x3e4b2cec	0.19841355
26	0xbd871ffe	-0.06597899
27	0x3db12445	0.08649496
28	0xbceaf008	-0.028678909
29	0xbd778b1e	-0.060435407
30	0x3d83b0e9	0.06430227
31	0x3dbe7ee9	0.0930155
32	0x3d76e831	0.06028003
33	0xbc877e35	-0.016539672
34	0x3d86db03	0.06584742
35	0x3d895515	0.06705681
36	0xbca14041	-0.019683959
37	0x3b8f67dd	0.004376395
38	0x3e571291	0.21003176
39	0x3dd0763a	0.101788
40	0xbca3b0fb	-0.019981852
41	0x3e0463ee	0.12928745
42	0x3cef5a8b	0.029217979
43	0xbb2a54fe	-0.00259906
44	0xbddbd084	-0.107331306
45	0x3d22ef4a	0.039778985
46	0x3d4d376f	0.050101694
47	0xbdc93437	-0.09824412
48	0x3da1433d	0.07874153
49	0x3d8d0340	0.068853855
50	0x3dff268c	0.12458524
51	0xbc8e9b9e	-0.017408188
52	0xbdd955ce	-0.10612069
53	0xbd6027ae	-0.05472534
54	0x3bbde886	0.005795541
55	0x3da02d08	0.07821089
56	0xbc3b0a7b	-0.011416073
57	0x3ca0863d	0.01959526
58	0x3e3575e0	0.17720747
59	0xbba52d21	-0.00504078
60	0xbd0704d7	-0.0329636
61	0x3d617bf8	0.055049866
62	0xbd95bff2	-0.07312001
63	0x3a46ab3a	0.00075786153
64	0x3d64d544	0.05586745
65	0x3d6c3b9d	0.05767404
66	0xbcd10705	-0.025516042
67	0xbda90a98	-0.08253974
68	0xbdc1ae58	-0.094570816
69	0x3c376789	0.011194118
70	0x3bb283d8	0.005447846
71	0xbc4db8b1	-0.012556241
72	0x3d68554b	0.056721967
73	0xbcdf6748	-0.027270928
74	0x3df115fd	0.11771772
75	0x3dc31da3	0.09527137
76	0x3dec0b57	0.115256004
77	0x3dbb24e8	0.09137899
78	0x3d312550	0.043248475
79	0xbd87c763	-0.06629827
80	0xbdfc64c4	-0.12323907
81	0x3dc87df0	0.09789646
82	0x3db4a254	0.08820024
83	0xbc817494	-0.01580266
84	0xbaba44d9	-0.0014211192
85	0x3bb1118e	0.005403704
86	0x3d50b312	0.050952025
87	0x3da62aab	0.08113607
88	0x3d3e8665	0.046514887
89	0x3c4f65ca	0.012658546
90	0x3d8782b4	0.066167265
91	0xbd031c85	-0.03200962
92	0x3d21fff2	0.03955073
93	0xbbdb21d9	-0.0066873846
94	0x3df08bab	0.117453896
95	0x3ddc8545	0.10767607
96	0x3d1d132d	0.038348366
97	0x3d8d5eff	0.06902885
98	0xbda97e69	-0.08276064
99	0x3ce76f49	0.028251307
100	0x3ea9d96c	0.33173692
101	0x3d8bb25a	0.06821127
102	0x3d2b1ec5	0.04177739
103	0x3e1cbce7	0.15306436
104	0x3de09384	0.109656364
105	0x3db1abf8	0.086753786
106	0x3db69d09	0.08916671
107	0xbd9218d3	-0.07133641
108	0xbcef4e8a	-0.029212255
109	0x3df0eb17	0.1176359
110	0xbd16d01b	-0.03681956
111	0x3d50021b	0.050783258
112	0x3d848a0d	0.064716436
113	0x3d1becf7	0.038067784
114	0x3e0ee6e8	0.13955271
115	0x3deab3f5	0.11460105
116	0x3db981fd	0.090579964
117	0x3d05acf8	0.03263566
118	0x3d8a13f2	0.067420855
119	0x3c7012c6	0.014652913
120	0x3d11ea7f	0.035624024
121	0x3cdffab7	0.02734123
122	0xbde07083	-0.1095896
123	0x3b6d1fd5	0.0036182303
124	0x3bc7a40f	0.0060925554
125	0x3e1ebe93	0.15502386
126	0x3db50546	0.088388965
127	0xbd57adb0	-0.052655876

dqn.4.weight f4 [128, 128]
0	0x3a4a656b	0.0007720801
1	0x3c7fe568	0.01561866
2	0xbd7d344c	-0.061817452
3	0xbdcd6fdd	-0.10031102
4	0x3e252f7d	0.16131397
5	0xbcdf552f	-0.027262298
6	0x3df2273f	0.11823892
7	0x3ea5165b	0.32243618
8	0xbeafb746	-0.34319514
9	0x3e174601	0.14772798
10	0xbd9719e5	-0.07377986
11	0x3ea28fcd	0.31750336
12	0x3d9cfb0c	0.07665071
13	0xbe82b29d	-0.25526896
14	0xbcab747b	-0.020929566
15	0x3d9da434	0.07697335
16	0x3dd7dbae	0.105399475
17	0xbe6810a2	-0.22662595
18	0x3e2a6b42	0.16642478
19	0xbee63ce4	-0.4496833
20	0xbd0189dc	-0.031625614
21	0x3e6fa3bf	0.23402308
22	0xbd62ef1e	-0.05540382
23	0x3c8b8471	0.017030926
24	0xbe1dd349	-0.1541263
25	0xbe8ad48f	-0.27115294
26	0xbe31a640	-0.17348576
27	0xbd1bd46d	-0.038044382
28	0xbd811223	-0.063022874
29	0x3daf846e	0.08570181
30	0x3ce675d5	0.028132359
31	0x3f041d10	0.51606846
32	0xbdd740b4	-0.10510388
33	0xbe19e764	-0.15029675
34	0xbd01261f	-0.031530496
35	0xbe3f4db6	-0.18681988
36	0xbdda1dfc	-0.1065025
37	0xbd83efd1	-0.06442226
38	0xbd93df01	-0.07220269
39	0x3e124368	0.14283526
40	0xbe7a1571	-0.24422242
41	0x3ca4ca0b	0.020115873
42	0x3f04be90	0.51853275
43	0x3da0b3f0	0.0784682
44	0xbdbfa79c	-0.09358141
45	0xbe943116	-0.289437
46	0xbe1eefb2	-0.15521124
47	0xbe66a101	-0.22522356
48	0x3dda9264	0.10672453
49	0x3ecb78d6	0.39740628
50	0xbddfd3d6	-0.109290764
51	0xbc9162bb	-0.017747274
52	0xbe2f1c15	-0.17100556
53	0x3dd17e22	0.10229136
54	0x3cea8d97	0.028631968
55	0x3df8f235	0.12155572
56	0x3e9d1443	0.3067952
57	0xbd992ee2	-0.07479645
58	0xbdd8ed47	-0.10592132
59	0x3e28ad83	0.1647244
60	0xbd1734fe	-0.03691577
61	0xbd92e500	-0.071725845
62	0x3db89783	0.090132736
63	0x3c611f0a	0.01374031
64	0x3e0171d2	0.12641075
65	0x3d91c94e	0.07118474
66	0xbddc88ac	-0.107682556
67	0x3d9d48af	0.07679879
68	0xbe3ebf8e	-0.1862776
69	0xbe9ce5ef	-0.30644175
70	0xbd4c5ac2	-0.04989124
71	0x3cdea9ff	0.02718067
72	0x3d06b8fa	0.03289125
73	0x3db28c2e	0.087181434
74	0x3ec86095	0.39136186
75	0x3e65e82b	0.22451846
76	0x3cb57bb2	0.02215371
77	0x3ee178c8	0.4403746
78	0xbe4e83ef	-0.20167516
79	0xbc09636c	-0.00838552
80	0xbd59721f	-0.05308735
81	0xbdef2997	-0.116778545
82	0x3e838c28	0.25692868
83	0xbd658ac0	-0.056040525
84	0x3979dc95	0.00023828664
85	0xbe0454ba	-0.12922946
86	0x3e4f4423	0.20240836
87	0x3d91c04a	0.07116754
88	0x3e0ca412	0.13734463
89	0x3dff2d4f	0.12459814
90	0xbcff2d90	-0.031149656
91	0xbd954dbf	-0.072902195
92	0xbd83188f	-0.064011686
93	0xbdc773af	-0.09738862
94	0x3da129c1	0.07869292
95	0x3dfd7842	0.12376453
96	0x3d1b5ce7	0.037930395
97	0x3e62f9a9	0.2216555
98	0xbdf8b677	-0.121441774
99	0xbdc79227	-0.09744673
100	0x3e89a469	0.26883247
101	0x3dc17ec0	0.09448004
102	0x3e077956	0.1322988
103	0xbf189330	-0.5959959
104	0x3e4d1eb1	0.20031239
105	0xbe3e4c6f	-0.18583845
106	0x3c996a37	0.018727405
107	0x3d9aab1d	0.075521685
108	0x3da933ec	0.082618564
109	0x3e3ee099	0.18640365
110	0x3dbb28a1	0.09138609
111	0x3d001c0e	0.031276755
112	0x3e3c9fd5	0.18420346
113	0x3e377116	0.17914233
114	0x3e57ae24	0.21062523
115	0xbda04b96	-0.07826917
116	0xbe3ad745	-0.18246181
117	0x3ea870e5	0.32898632
118	0x3e47468e	0.19460508
119	0xbdb13e13	-0.08654418
120	0x3e5b2e81	0.21404459
121	0x3c820789	0.015872734
122	0xbe19ff84	-0.15038878
123	0xbe223ad5	-0.15842755
124	0xbd94ae11	-0.07259763
125	0xbe3dd91b	-0.1853985
126	0x3e42200e	0.1895754
127	0x3e667570	0.22505736
128	0xbd86fc2c	-0.06591067
129	0x3dd723ed	0.10504899
130	0xbe706fcf	-0.23480152
131	0xbe4f885a	-0.20266858
132	0xbdd2dda6	-0.10296182
133	0xbe0c992e	-0.13730308
134	0x3adbd6a9	0.0016772348
135	0xbe5a82bb	-0.21338932
136	0x3d3d7bd7	0.04626068
137	0xbe407f96	-0.1879867
138	0xbdf82da4	-0.1211808
139	0xbe4bf246	-0.19916639
140	0xbe397ccb	-0.18114011
141	0xbe5bb38d	-0.21455212
142	0x3dff1ff4	0.124572664
143	0x3df0ec02	0.11763765
144	0x3c8037ef	0.015651671
145	0xbe3af6c3	-0.18258195
146	0xbc676cb2	-0.014125036
147	0x3cf788eb	0.030216655
148	0xbe42098d	-0.18948956
149	0xbe5a098d	-0.21292706
150	0xbdb7f0ef	-0.08981501
151	0xbe60aca5	-0.21940859
152	0xbdca8d28	-0.09890205
153	0xbdb85dd1	-0.09002269
154	0xbe0b286e	-0.13589641
155	0x3e263076	0.16229424
156	0x3b05a4d5	0.0020392437
157	0xbcc4624a	-0.02397265
158	0x3dc7427f	0.0972948
159	0xbdec0b99	-0.115256496
160	0xbe340f18	-0.17583883
161	0x3cd6e496	0.026232045
162	0x3d8f74c1	0.07004691
163	0x3ce5d2bb	0.028054586
164	0xbe354b41	-0.17704488
165	0x3ba1a2ae	0.004932723
166	0xbdd2a0b4	-0.10284558
167	0xbd6b007c	-0.05737351
168	0x3d44db98	0.048060983
169	0xbca64e3b	-0.020300975
170	0x3dba0cf6	0.09084503
171	0xbdbfdab2	-0.09367885
172	0x3de3a61c	0.11115667
173	0x3ddd731b	0.1081297
174	0x3d8ff553	0.07029214
175	0x3e2609dc	0.16214699
176	0x3d6e6bdf	0.058208343
177	0x3db9dd77	0.09075444
178	0x3e10edf4	0.14153272
179	0x3ddf96be	0.10917424
180	0x3e3d9984	0.18515593
181	0xbcf32f2a	-0.029685576
182	0x3e09abdf	0.1344447
183	0xbdcaa037	-0.0989384
184	0x3cd43ccf	0.025907902
185	0x3dbf2810	0.09333813
186	0x3df3ec5a	0.11910315
187	0xbdc38425	-0.09546689
188	0xbde94e06	-0.11391835
189	0xbe368736	-0.17825016
190	0x3e17ed3d	0.14836593
191	0x3dbd59f4	0.09245673
192	0xbe697f29	-0.22802414
193	0xbe45f158	-0.19330347
194	0xbe29efb2	-0.16595343
195	0xbe6ecd60	-0.23320532
196	0xbdd8020b	-0.10547265
197	0xbdab1498	-0.08353537
198	0xbdc14655	-0.09437243
199	0xbe44e73f	-0.19228838
200	0x3e3f597d	0.18686481
201	0xbd9ae3a7	-0.075629525
202	0xbd9e5814	-0.07731643
203	0xbdf14dd6	-0.11782424
204	0x3e3afa7d	0.18259616
205	0x3e0ad02b	0.13555972
206	0xbd75857d	-0.059941757
207	0xbe445f59	-0.19176997
208	0xbd1d6a72	-0.038431592
209	0xbe010fe6	-0.12603721
210	0x3e506d55	0.20354207
211	0xbd8f4ed3	-0.069974564
212	0x3e002a10	0.12516046
213	0x3e0ae16f	0.13562559
214	0xbe4091c7	-0.1880561
215	0x3b999895	0.0046873786
216	0xbbe4a8b7	-0.00697812
217	0xbe232f10	-0.15935922
218	0x3d1ed8d5	0.038781006
219	0x3e323cfd	0.17406078
220	0x3e3b0d63	0.18266825
221	0x3e3dac65	0.18522795
222	0x3da3fdc9	0.0800739
223	0xbd3aadef	-0.045576032
224	0x3d2b00c5	0.04174878
225	0xbe558f58	-0.20855463
226	0xbe2193d2	-0.15779045
227	0xbd1c6946	-0.038186334
228	0xbe03f531	-0.12886502
229	0x3d4d08e1	0.050057296
230	0x3de83b40	0.11339426
231	0xbd82b22a	-0.06381638
232	0xbcfe7549	-0.031061785
233	0x3e34cd3e	0.17656419
234	0xbe2bd617	-0.16780888
235	0xbe45df31	-0.19323422
236	0xbddc761e	-0.107647166
237	0x3d815f1c	0.06316969
238	0x3dc65474	0.09684077
239	0xbe718636	-0.23586354
240	0x3d865c29	0.06560547
241	0xbdcf4820	-0.101211786
242	0x3e344fdf	0.17608593
243	0xbe4b0d3a	-0.19829264
244	0x3bbcee6f	0.005765728
245	0xbe5acdd7	-0.21367584
246	0x3d3ba58c	0.045812175
247	0xbe72b240	-0.2370081
248	0xbc507947	-0.012724227
249	0x3e2c3e04	0.16820532
250	0xbdd99490	-0.10624039
251	0xbdcbc3d5	-0.09949461
252	0x3ca9bb41	0.020719172
253	0xbd754d04	-0.0598879
254	0x3e5adf46	0.21374235
255	0xbe227e46	-0.15868482

dqn.4.bias f4 [128]
0	0x3dfeca00	0.12440872
1	0xbcf3197a	-0.029675234
2	0x3d9d31a1	0.076754816
3	0x3e3e6d80	0.18596458
4	0xbe3b73bd	-0.1830587
5	0x3c94c5ae	0.018160667
6	0xbd6179a2	-0.05504764
7	0x3e72c132	0.2370651
8	0x3d99ab83	0.075034164
9	0x3d811918	0.063036144
10	0x3e1ea880	0.15493965
11	0x3dd4d2eb	0.10391792
12	0xbc2cdbe4	-0.010550473
13	0xbe0d726c	-0.1381318
14	0x3d10a715	0.03531559
15	0xbafd0676	-0.0019304294
16	0xbcf5cd23	-0.030005043
17	0x3d108e9a	0.035292245
18	0x3cd97854	0.026546635
19	0x3e1faeaf	0.1559398
20	0x3e13d6e1	0.14437439
21	0xbcbca4fc	-0.02302789
22	0xbd0bac24	-0.034099713
23	0x3de83c4a	0.11339624
24	0x3c8bb124	0.01705224
25	0x3e77e8ff	0.24209975
26	0xbcd3286c	-0.02577611
27	0xbdacc4ad	-0.084359504
28	0xbcf17eac	-0.029479347
29	0xbe429b73	-0.19004612
30	0xbe45aecf	-0.19304965
31	0x3c52c563	0.0128644435
32	0x3e41c74d	0.18923683
33	0x3dcfecd7	0.101525955
34	0x3de3632d	0.11102901
35	0xbbf0c88c	-0.007348126
36	0xbcb4dd9f	-0.022078333
37	0x3c82d889	0.015972393
38	0x3e5d1e7c	0.2159366
39	0xbcbd3a1e	-0.023099001
40	0xbca1ec25	-0.019765923
41	0x3e302751	0.17202498
42	0x3e14da53	0.14536409
43	0x3c89d63d	0.01682579
44	0x3e21bf0c	0.15795535
45	0x3db68fed	0.089141704
46	0x39fdcff6	0.00048410863
47	0x3e0c65a6	0.13710651
48	0x3e4a86ec	0.19778031
49	0xbd24e54e	-0.040257744
50	0xbd01775f	-0.03160798
51	0x3e00d2ed	0.12580462
52	0x3dc17aab	0.09447225
53	0xbc044b6c	-0.008074623
54	0x3e4bf695	0.19918282
55	0xbcd836c6	-0.026393306
56	0x3daaa69e	0.08332561
57	0xbe0e6d7f	-0.13908957
58	0x3d63c7b7	0.055610385
59	0xbd57f441	-0.052723173
60	0xbd64c140	-0.05584836
61	0x3d60aaaa	0.054850258
62	0x3e50003d	0.20312591
63	0x3e2a9e13	0.16661863
64	0x3e06e331	0.13172604
65	0x3e51a7a8	0.20474112
66	0xbc831c9a	-0.01600485
67	0x3dce2387	0.1006537
68	0x3e389b26	0.18027934
69	0x3dcd0c27	0.100120835
70	0x3e32a3f0	0.1744535
71	0x3bcb5831	0.0062055816
72	0xbd1c656f	-0.038182672
73	0x3da97e81	0.08276082
74	0xbbde3eed	-0.0067824037
75	0x3d92c120	0.07165742
76	0xbcf4f5f2	-0.029902432
77	0x3da10e50	0.07864058
78	0x3dd20ecd	0.10256729
79	0x3ddce858	0.107865036
80	0x3def8d5c	0.11696884
81	0xbcb0c32e	-0.021577444
82	0xbd946f01	-0.07247735
83	0x3cbc396c	0.0229766
84	0xbd021c1f	-0.0317651
85	0xbe131c3d	-0.14366241
86	0xbc034f90	-0.008014575
87	0xbc89ae16	-0.016806643
88	0x3def32bd	0.116795994
89	0x3de8e06e	0.113709316
90	0x3e864963	0.26227865
91	0x3e3724b4	0.17885095
92	0x3b62feee	0.0034636813
93	0x3d7dd6f3	0.06197257
94	0xbe14ccf0	-0.14531302
95	0x3d98f595	0.07468716
96	0x398c590f	0.00026769235
97	0x3e2f6239	0.17127313
98	0x3e3c3840	0.18380833
99	0xbe0eccde	-0.13945338
100	0x3d87be99	0.066281505
101	0xbc5bb6a3	-0.013410243
102	0x3b3e231b	0.0029012624
103	0x3b8f82b3	0.0043795942
104	0x3dd410c4	0.1035476
105	0x3e237f67	0.15966569
106	0xbcffa90a	-0.031208534
107	0x3da6b464	0.081398755
108	0x3d49902e	0.049209766
109	0xbd18222a	-0.037141956
110	0xbe0cc290	-0.13746095
111	0x3d770ff7	0.06031796
112	0x3e9f9cae	0.31174225
113	0xbd17226c	-0.03689806
114	0xbd6eb709	-0.058280025
115	0x3dd37e39	0.103268094
116	0x3c9e3abd	0.019315118
117	0x3dc94e20	0.09829354
118	0xbd268129	-0.04065052
119	0xbe7ed0ae	-0.24884292
120	0x3e3d3c99	0.18480147
121	0x3e095ab3	0.13413505
122	0xbd16181c	-0.036644086
123	0x3cdcd6cc	0.026957892
124	0xbd5850b9	-0.052811358
125	0x3be29df8	0.006915804
126	0xbdcdabf2	-0.100425616
127	0xbba92163	-0.0051614507

dqn.6.weight f4 [4, 128]
0	0x3df16af3	0.11787977
1	0xbca376d2	-0.019954119
2	0x3ea471f4	0.3211819
3	0x3eaf1526	0.34195822
4	0x3e625d3f	0.22105883
5	0x3f025c0e	0.50921714
6	0xbe9b1922	-0.30292612
7	0x3e93862e	0.28813308
8	0x3f559412	0.8342906
9	0x3f0f79f3	0.56045455
10	0xbe726b9f	-0.23673867
11	0xbea0eed8	-0.31432223
12	0x3e8803f2	0.2656551
13	0x3e4cd236	0.20002064
14	0x3e9ca246	0.30592555
15	0x3d6aa2e1	0.05728424
16	0x3e83db76	0.25753373
17	0x3ecb9019	0.39758375
18	0xbe666b92	-0.22501972
19	0x3e8b334d	0.27187577
20	0x3e885d57	0.26633713
21	0x3ea092ac	0.31361902
22	0x3d559766	0.052146338
23	0x3eefd99b	0.46845707
24	0xbeb44c76	-0.35214585
25	0x3e90da21	0.2829142
26	0x3e783266	0.24237975
27	0x3ecaf4ef	0.39639995
28	0x3e401dea	0.18761411
29	0xbddd346e	-0.10801016
30	0x3e3c4732	0.18386534
31	0x3c45981f	0.012060194
32	0x3ee7f4ea	0.45304042
33	0xbe6c2f3f	-0.23064898
34	0x3f0ac691	0.5420924
35	0xbe295abe	-0.16538522
36	0x3de96f54	0.11398187
37	0x3cc0067d	0.023440594
38	0xbe5c3c24	-0.21507317
39	0xbcb883cf	-0.022523789
40	0x3cb5f23a	0.02221023
41	0x3e498dd3	0.19683008
42	0xbdaee4bf	-0.085397236
43	0xbe18e78b	-0.14932077
44	0x3e956a47	0.29182646
45	0x3e1bf4f9	0.15230168
46	0x3e909989	0.28242138
47	0xbdc7d07a	-0.097565606
48	0xbec749c9	-0.3892348
49	0x3e089fae	0.13342163
50	0x3e1529e0	0.14566755
51	0xbe9e7e72	-0.30955845
52	0xbe5de040	-0.21667576
53	0xbc9cd1b6	-0.019142967
54	0xbeae3a87	-0.34029028
55	0xbe197f5c	-0.1498999
56	0x3e5cdf53	0.21569566
57	0xbe25ab9c	-0.16178745
58	0xbe3e19a0	-0.18564463
59	0x3e004d7d	0.1252956
60	0xbe068e36	-0.13140187
61	0xbe7ed26e	-0.2488496
62	0xbe4ec6b7	-0.20192991
63	0xbe8f40fa	-0.2797926
64	0x3e9f833e	0.31154817
65	0x3e5214e1	0.20515777
66	0xbd6b3522	-0.05742372
67	0xbe823c4c	-0.25436628
68	0x3d43b0de	0.047776096
69	0x3ecf699b	0.40510258
70	0xbeae5e26	-0.34056205
71	0x3de83f39	0.11340184
72	0x3e7dcebe	0.24785897
73	0xbdd7f856	-0.10545413
74	0x3db2c9c3	0.08729889
75	0xbe43d3a3	-0.19123702
76	0xbe95c1ee	-0.2924952
77	0x3d68a894	0.056801394
78	0x3e8433a9	0.25820664
79	0xbe7d7a78	-0.2475375
80	0x3eec37ef	0.46136424
81	0xbd11f095	-0.035629828
82	0x3f0a7909	0.54090935
83	0xbe1e4d0d	-0.1545908
84	0xbcaf465e	-0.021395858
85	0x3ddb1ec3	0.10699227
86	0x3e31239f	0.17298745
87	0x3cb12a2f	0.02162656
88	0x3e878f92	0.26476723
89	0x3eff2dd0	0.4983964
90	0x3e3f5303	0.1868401
91	0xbe096e4a	-0.13420978
92	0x3e964ec4	0.29356968
93	0x3e8058ad	0.25067654
94	0x3dd74839	0.10511822
95	0xbebffc6a	-0.37497264
96	0xbe4ff5da	-0.20308629
97	0x3e80af1a	0.25133592
98	0xbe9e76d1	-0.30950025
99	0x3d96eee6	0.07369785
100	0xbe695c86	-0.22789201
101	0x3e94b68e	0.29045528
102	0x3e1b6043	0.1517344
103	0x3c9a602d	0.018844688
104	0x3f1b4364	0.60649705
105	0xbe705aa7	-0.23472081
106	0x3df172a2	0.117894426
107	0x3f019d36	0.5063051
108	0x3d8fcbfa	0.07021327
109	0x3e38dd27	0.18053113
110	0x3b8469df	0.004040941
111	0xbe8e6b70	-0.27816343
112	0x3dac4e97	0.08413427
113	0x3e8b3c16	0.2719428
114	0x3cd5ed5f	0.026114164
115	0xbe0ecb29	-0.13944687
116	0xbec58d2e	-0.38584274
117	0xbeb2c85a	-0.3491848
118	0x3dfd0ec8	0.12356335
119	0xba418f57	-0.0007383725
120	0x3cd8f4f2	0.026483987
121	0x3ef7538b	0.48305926
122	0x3dd500d3	0.10400548
123	0x3ea10da3	0.31455716
124	0x3e1fe20e	0.15613577
125	0x3cbfdbd6	0.023420256
126	0x3e950223	0.29103193
127	0x3e8a5868	0.27020574
128	0x3ec72f6a	0.38903362
129	0x3dabe4ff	0.08393287
130	0x3d0daae0	0.034586787
131	0xbe4d71bf	-0.20062922
132	0xbd9d0926	-0.076677606
133	0x3f1fe293	0.624551
134	0x3dcd74dd	0.100320555
135	0xbe5e95c4	-0.21736819
136	0x3f43bb79	0.76457936
137	0x3eccb138	0.39978957
138	0xbebeaa37	-0.3723924
139	0xbd8589a8	-0.065203965
140	0xbe622dae	-0.22087738
141	0x3df28ee7	0.11843663
142	0x3f34e15c	0.7065637
143	0xbe875980	-0.2643547
144	0x3ce0e946	0.027454983
145	0x3ea75e5a	0.32689172
146	0x3dc08ab6	0.09401457
147	0x3f1c355f	0.6101894
148	0x3e1c1379	0.15241803
149	0x3eab81b9	0.33497408
150	0x3d1be4c0	0.03805995
151	0x3eeb51cf	0.45960853
152	0x3e02e2a9	0.12781776
153	0x3dfa680f	0.12226879
154	0x3e1d5cb9	0.15367402
155	0x3f04dbd9	0.5189796
156	0xba5845d7	-0.0008250153
157	0x3c994a91	0.018712314
158	0x3dfa8bc2	0.12233688
159	0x3e689336	0.22712407
160	0x3e3adb69	0.18247761
161	0xbe19b9bb	-0.15012257
162	0x3ed0b915	0.40766206
163	0x3d889e64	0.066708356
164	0x3e19576b	0.14974754
165	0xbe9d90bb	-0.30774483
166	0xbeae591d	-0.34052363
167	0xbe307b6e	-0.17234585
168	0xbde19d70	-0.11016357
169	0x3ee21183	0.44153985
170	0xbebbce77	-0.36680958
171	0xbe135a9a	-0.1439003
172	0xbb9be6f8	-0.004757758
173	0x3ef3b358	0.47597766
174	0x3ecfd6c8	0.40593553
175	0xbe94fb47	-0.2909796
176	0xbe9f7696	-0.3114516
177	0x3e2cbd5f	0.16869114
178	0x3e1f99bc	0.15585989
179	0xbe8c42d7	-0.27394745
180	0x3c8c0958	0.0170943
181	0x3e26f76a	0.16305318
182	0xbdb3e6bd	-0.08784244
183	0x3df26f7c	0.1183767
184	0x3e9a5319	0.30141523
185	0xbdfa0f9c	-0.122100085
186	0x3dbc2528	0.091867745
187	0xbe9b7c95	-0.30368486
188	0x3e4229ab	0.18961208
189	0xbe84b397	-0.25918266
190	0xbe7886bf	-0.24270152
191	0xbec6c121	-0.3881922
192	0x3e6cc497	0.23121868
193	0xbd40df66	-0.04708805
194	0xbdc3203f	-0.09527635
195	0x3e8ec44a	0.27884132
196	0x3d131ba1	0.03591502
197	0x3ed708e7	0.4199898
198	0xbea6acc5	-0.32553688
199	0x3ed68156	0.4189555
200	0x3d27514f	0.040849026
201	0xbe70ae7c	-0.2350406
202	0xbe875b55	-0.26436868
203	0xbd6153f9	-0.055011723
204	0xbded3979	-0.11583228
205	0xbe2e7a21	-0.17038776
206	0xbe7e8767	-0.2485634
207	0xbe11da21	-0.14243366
208	0x3ee79e46	0.4523794
209	0xbddc7a96	-0.10765569
210	0x3edb5089	0.4283488
211	0x3e201e40	0.1563654
212	0xbe73507a	-0.23761168
213	0xbe061e11	-0.13097407
214	0xbe566ea9	-0.20940651
215	0xbe5d287c	-0.21597475
216	0x3e9d0384	0.30666745
217	0x3ed479af	0.41499087
218	0x3eaad4ac	0.3336538
219	0x3dc22ad8	0.09480828
220	0x3efcc4ee	0.49368995
221	0x3e55ee0b	0.20891587
222	0x3db8af89	0.09017856
223	0xbe8285ec	-0.254928
224	0x3e8a4ab6	0.27010125
225	0x3e43b9b5	0.1911381
226	0xbe2fb40a	-0.17158523
227	0xbc33fb30	-0.010985181
228	0xbe02f8ab	-0.12790172
229	0xbe00c359	-0.12574519
230	0x3e36079a	0.17776337
231	0xbe489c85	-0.19590957
232	0x3f1ab607	0.60434
233	0xbea0ac10	-0.31381273
234	0xbd9acf6d	-0.075590946
235	0x3ec919f6	0.3927762
236	0x3ec2ef28	0.38073087
237	0x3e821fec	0.2541498
238	0xbcba22a0	-0.022721589
239	0xbeb78cf3	-0.35849723
240	0xbeb0ceb9	-0.34532717
241	0xbcb0056a	-0.021486957
242	0xbcb4f4bc	-0.022089355
243	0x3df191c8	0.11795384
244	0xbc5e2633	-0.013558912
245	0xbe9541b5	-0.29151693
246	0xbe25ba7d	-0.16184421
247	0x3d8061c1	0.06268645
248	0x3e245425	0.16047724
249	0x3e943c0a	0.28952056
250	0x3c279e66	0.010230636
251	0x3bf37c86	0.007430616
252	0x3d9a9217	0.07547396
253	0xbe39fc0e	-0.18162557
254	0x3d7ec738	0.06220171
255	0x3e2934a1	0.16523983

dqn.6.bias f4 [4]
0	0xbe378ffd	-0.17926021
1	0xbdf8f294	-0.12155643
2	0x3dc9fab3	0.0986227
3	0xbdd1d343	-0.10245373
